…
##########################################################################################################################################################################################################################################2024-01-02 22:03:56.894012############################################################################################################################################################################################################################################# New lts ###
Total obtaining n: 328
obtaining n over lr goal: 0
Total select n: 333
select n over lr goal: 5
//////////// Start module_EU_LG Epoch ///////////
Lr too small. non acceptable module at max eps tensor([12.7073], dtype=torch.float64, grad_fn=<UnbindBackward0>)
////////// Start CRAM and REORG with unacceptable wt //////////
model after wt: TwoLayerNet(
  (layer_1): Linear(in_features=18, out_features=1, bias=True)
  (layer_out): Linear(in_features=1, out_features=1, bias=True)
  (relu): ReLU()
)
eps_square (last 10) before cram: tensor([[6.9074],
        [7.2064],
        [7.2828],
        [7.3420],
        [7.3804],
        [7.5212],
        [7.6059],
        [7.6143],
        [7.6658],
        [7.6844]], dtype=torch.float64, grad_fn=<SliceBackward0>)
cramming sample 328th |0.00% total of 5
cramming sample 329th |20.00% total of 5
cramming sample 330th |40.00% total of 5
cramming sample 331th |60.00% total of 5
cramming sample 332th |80.00% total of 5
model after cram: TwoLayerNet(
  (layer_1): Linear(in_features=18, out_features=16, bias=True)
  (layer_out): Linear(in_features=16, out_features=1, bias=True)
  (relu): ReLU()
)
eps_sqaure (last 10) after cram: tensor([[6.9074e+00],
        [7.2064e+00],
        [7.2828e+00],
        [7.3420e+00],
        [7.3804e+00],
        [1.4996e-23],
        [1.6117e-23],
        [1.1803e-22],
        [8.6641e-25],
        [8.5323e-25]], dtype=torch.float64, grad_fn=<SliceBackward0>)
Acceptable SLFN exist in 'acceptable/cram.pth'.
=================== reorganising ===================
[ 0.00%] ------------> Checking nodes...
TwoLayerNet(
  (layer_1): Linear(in_features=18, out_features=16, bias=True)
  (layer_out): Linear(in_features=16, out_features=1, bias=True)
  (relu): ReLU()
)
    --> Start regularising_EU_LG_UA
Try trim model: Copy model and delete nodes success
    --> Start module_EU_LG
[ 6.25%] ------------> Checking nodes...
TwoLayerNet(
  (layer_1): Linear(in_features=18, out_features=16, bias=True)
  (layer_out): Linear(in_features=16, out_features=1, bias=True)
  (relu): ReLU()
)
    --> Start regularising_EU_LG_UA
Try trim model: Copy model and delete nodes success
    --> Start module_EU_LG
[ 12.50%] ------------> Checking nodes...
TwoLayerNet(
  (layer_1): Linear(in_features=18, out_features=16, bias=True)
  (layer_out): Linear(in_features=16, out_features=1, bias=True)
  (relu): ReLU()
)
    --> Start regularising_EU_LG_UA
Try trim model: Copy model and delete nodes success
    --> Start module_EU_LG
[ 18.75%] ------------> Checking nodes...
TwoLayerNet(
  (layer_1): Linear(in_features=18, out_features=16, bias=True)
  (layer_out): Linear(in_features=16, out_features=1, bias=True)
  (relu): ReLU()
)
    --> Start regularising_EU_LG_UA
Try trim model: Copy model and delete nodes success
    --> Start module_EU_LG
[ 25.00%] ------------> Checking nodes...
TwoLayerNet(
  (layer_1): Linear(in_features=18, out_features=16, bias=True)
  (layer_out): Linear(in_features=16, out_features=1, bias=True)
  (relu): ReLU()
)
    --> Start regularising_EU_LG_UA
Try trim model: Copy model and delete nodes success
    --> Start module_EU_LG
[ 31.25%] ------------> Checking nodes...
TwoLayerNet(
  (layer_1): Linear(in_features=18, out_features=16, bias=True)
  (layer_out): Linear(in_features=16, out_features=1, bias=True)
  (relu): ReLU()
)
    --> Start regularising_EU_LG_UA
Try trim model: Copy model and delete nodes success
    --> Start module_EU_LG
[ 37.50%] ------------> Checking nodes...
TwoLayerNet(
  (layer_1): Linear(in_features=18, out_features=16, bias=True)
  (layer_out): Linear(in_features=16, out_features=1, bias=True)
  (relu): ReLU()
)
    --> Start regularising_EU_LG_UA
Try trim model: Copy model and delete nodes success
    --> Start module_EU_LG
[ 43.75%] ------------> Checking nodes...
TwoLayerNet(
  (layer_1): Linear(in_features=18, out_features=16, bias=True)
  (layer_out): Linear(in_features=16, out_features=1, bias=True)
  (relu): ReLU()
)
    --> Start regularising_EU_LG_UA
Try trim model: Copy model and delete nodes success
    --> Start module_EU_LG
[ 50.00%] ------------> Checking nodes...
TwoLayerNet(
  (layer_1): Linear(in_features=18, out_features=16, bias=True)
  (layer_out): Linear(in_features=16, out_features=1, bias=True)
  (relu): ReLU()
)
    --> Start regularising_EU_LG_UA
Try trim model: Copy model and delete nodes success
    --> Start module_EU_LG
[ 56.25%] ------------> Checking nodes...
TwoLayerNet(
  (layer_1): Linear(in_features=18, out_features=16, bias=True)
  (layer_out): Linear(in_features=16, out_features=1, bias=True)
  (relu): ReLU()
)
    --> Start regularising_EU_LG_UA
Try trim model: Copy model and delete nodes success
    --> Start module_EU_LG
[ 62.50%] ------------> Checking nodes...
TwoLayerNet(
  (layer_1): Linear(in_features=18, out_features=16, bias=True)
  (layer_out): Linear(in_features=16, out_features=1, bias=True)
  (relu): ReLU()
)
    --> Start regularising_EU_LG_UA
Try trim model: Copy model and delete nodes success
    --> Start module_EU_LG
[ 68.75%] ------------> Checking nodes...
TwoLayerNet(
  (layer_1): Linear(in_features=18, out_features=16, bias=True)
  (layer_out): Linear(in_features=16, out_features=1, bias=True)
  (relu): ReLU()
)
    --> Start regularising_EU_LG_UA
Try trim model: Copy model and delete nodes success
    --> Start module_EU_LG
[ 75.00%] ------------> Checking nodes...
TwoLayerNet(
  (layer_1): Linear(in_features=18, out_features=16, bias=True)
  (layer_out): Linear(in_features=16, out_features=1, bias=True)
  (relu): ReLU()
)
    --> Start regularising_EU_LG_UA
Try trim model: Copy model and delete nodes success
    --> Start module_EU_LG
[ 81.25%] ------------> Checking nodes...
TwoLayerNet(
  (layer_1): Linear(in_features=18, out_features=16, bias=True)
  (layer_out): Linear(in_features=16, out_features=1, bias=True)
  (relu): ReLU()
)
    --> Start regularising_EU_LG_UA
Try trim model: Copy model and delete nodes success
    --> Start module_EU_LG
[ 87.50%] ------------> Checking nodes...
TwoLayerNet(
  (layer_1): Linear(in_features=18, out_features=16, bias=True)
  (layer_out): Linear(in_features=16, out_features=1, bias=True)
  (relu): ReLU()
)
    --> Start regularising_EU_LG_UA
Try trim model: Copy model and delete nodes success
    --> Start module_EU_LG
[ 93.75%] ------------> Checking nodes...
TwoLayerNet(
  (layer_1): Linear(in_features=18, out_features=16, bias=True)
  (layer_out): Linear(in_features=16, out_features=1, bias=True)
  (relu): ReLU()
)
    --> Start regularising_EU_LG_UA
Try trim model: Copy model and delete nodes success
    --> Start module_EU_LG
model after reorg: TwoLayerNet(
  (layer_1): Linear(in_features=18, out_features=16, bias=True)
  (layer_out): Linear(in_features=16, out_features=1, bias=True)
  (relu): ReLU()
)
### New lts ###
Total obtaining n: 333
obtaining n over lr goal: 0
Total select n: 338
select n over lr goal: 5
//////////// Start module_EU_LG Epoch ///////////
Finish epoch. non acceptable module at max eps tensor([10730532.2816], dtype=torch.float64, grad_fn=<UnbindBackward0>)
////////// Start CRAM and REORG with unacceptable wt //////////
model after wt: TwoLayerNet(
  (layer_1): Linear(in_features=18, out_features=16, bias=True)
  (layer_out): Linear(in_features=16, out_features=1, bias=True)
  (relu): ReLU()
)
eps_square (last 10) before cram: tensor([[6.9074],
        [7.2064],
        [7.2828],
        [7.3420],
        [7.3804],
        [7.7657],
        [7.7761],
        [8.0642],
        [8.0938],
        [8.2421]], dtype=torch.float64, grad_fn=<SliceBackward0>)
cramming sample 333th |0.00% total of 5
cramming sample 334th |20.00% total of 5
cramming sample 335th |40.00% total of 5
cramming sample 336th |60.00% total of 5
cramming sample 337th |80.00% total of 5
model after cram: TwoLayerNet(
  (layer_1): Linear(in_features=18, out_features=31, bias=True)
  (layer_out): Linear(in_features=31, out_features=1, bias=True)
  (relu): ReLU()
)
eps_sqaure (last 10) after cram: tensor([[6.9074e+00],
        [7.2064e+00],
        [7.2828e+00],
        [7.3420e+00],
        [7.3804e+00],
        [3.2572e-24],
        [1.0252e-22],
        [8.1302e-23],
        [3.2465e-21],
        [2.4037e-25]], dtype=torch.float64, grad_fn=<SliceBackward0>)
Acceptable SLFN exist in 'acceptable/cram.pth'.
=================== reorganising ===================
[ 0.00%] ------------> Checking nodes...
TwoLayerNet(
  (layer_1): Linear(in_features=18, out_features=31, bias=True)
  (layer_out): Linear(in_features=31, out_features=1, bias=True)
  (relu): ReLU()
)
    --> Start regularising_EU_LG_UA
Try trim model: Copy model and delete nodes success
    --> Start module_EU_LG
[ 3.23%] ------------> Checking nodes...
TwoLayerNet(
  (layer_1): Linear(in_features=18, out_features=31, bias=True)
  (layer_out): Linear(in_features=31, out_features=1, bias=True)
  (relu): ReLU()
)
    --> Start regularising_EU_LG_UA
Try trim model: Copy model and delete nodes success
    --> Start module_EU_LG
[ 6.45%] ------------> Checking nodes...
TwoLayerNet(
  (layer_1): Linear(in_features=18, out_features=31, bias=True)
  (layer_out): Linear(in_features=31, out_features=1, bias=True)
  (relu): ReLU()
)
    --> Start regularising_EU_LG_UA
Try trim model: Copy model and delete nodes success
    --> Start module_EU_LG
[ 9.68%] ------------> Checking nodes...
TwoLayerNet(
  (layer_1): Linear(in_features=18, out_features=31, bias=True)
  (layer_out): Linear(in_features=31, out_features=1, bias=True)
  (relu): ReLU()
)
    --> Start regularising_EU_LG_UA
Try trim model: Copy model and delete nodes success
    --> Start module_EU_LG
[ 12.90%] ------------> Checking nodes...
TwoLayerNet(
  (layer_1): Linear(in_features=18, out_features=31, bias=True)
  (layer_out): Linear(in_features=31, out_features=1, bias=True)
  (relu): ReLU()
)
    --> Start regularising_EU_LG_UA
Try trim model: Copy model and delete nodes success
    --> Start module_EU_LG
[ 16.13%] ------------> Checking nodes...
TwoLayerNet(
  (layer_1): Linear(in_features=18, out_features=31, bias=True)
  (layer_out): Linear(in_features=31, out_features=1, bias=True)
  (relu): ReLU()
)
    --> Start regularising_EU_LG_UA
Try trim model: Copy model and delete nodes success
    --> Start module_EU_LG
[ 19.35%] ------------> Checking nodes...
TwoLayerNet(
  (layer_1): Linear(in_features=18, out_features=31, bias=True)
  (layer_out): Linear(in_features=31, out_features=1, bias=True)
  (relu): ReLU()
)
    --> Start regularising_EU_LG_UA
Try trim model: Copy model and delete nodes success
    --> Start module_EU_LG
[ 22.58%] ------------> Checking nodes...
TwoLayerNet(
  (layer_1): Linear(in_features=18, out_features=31, bias=True)
  (layer_out): Linear(in_features=31, out_features=1, bias=True)
  (relu): ReLU()
)
    --> Start regularising_EU_LG_UA
Try trim model: Copy model and delete nodes success
    --> Start module_EU_LG
[ 25.81%] ------------> Checking nodes...
TwoLayerNet(
  (layer_1): Linear(in_features=18, out_features=31, bias=True)
  (layer_out): Linear(in_features=31, out_features=1, bias=True)
  (relu): ReLU()
)
    --> Start regularising_EU_LG_UA
Try trim model: Copy model and delete nodes success
    --> Start module_EU_LG
[ 29.03%] ------------> Checking nodes...
TwoLayerNet(
  (layer_1): Linear(in_features=18, out_features=31, bias=True)
  (layer_out): Linear(in_features=31, out_features=1, bias=True)
  (relu): ReLU()
)
    --> Start regularising_EU_LG_UA
Try trim model: Copy model and delete nodes success
    --> Start module_EU_LG
[ 32.26%] ------------> Checking nodes...
TwoLayerNet(
  (layer_1): Linear(in_features=18, out_features=31, bias=True)
  (layer_out): Linear(in_features=31, out_features=1, bias=True)
  (relu): ReLU()
)
    --> Start regularising_EU_LG_UA
Try trim model: Copy model and delete nodes success
    --> Start module_EU_LG
[ 35.48%] ------------> Checking nodes...
TwoLayerNet(
  (layer_1): Linear(in_features=18, out_features=31, bias=True)
  (layer_out): Linear(in_features=31, out_features=1, bias=True)
  (relu): ReLU()
)
    --> Start regularising_EU_LG_UA
Try trim model: Copy model and delete nodes success
    --> Start module_EU_LG
[ 38.71%] ------------> Checking nodes...
TwoLayerNet(
  (layer_1): Linear(in_features=18, out_features=31, bias=True)
  (layer_out): Linear(in_features=31, out_features=1, bias=True)
  (relu): ReLU()
)
    --> Start regularising_EU_LG_UA
Try trim model: Copy model and delete nodes success
    --> Start module_EU_LG
[ 41.94%] ------------> Checking nodes...
TwoLayerNet(
  (layer_1): Linear(in_features=18, out_features=31, bias=True)
  (layer_out): Linear(in_features=31, out_features=1, bias=True)
  (relu): ReLU()
)
    --> Start regularising_EU_LG_UA
Try trim model: Copy model and delete nodes success
    --> Start module_EU_LG
[ 45.16%] ------------> Checking nodes...
TwoLayerNet(
  (layer_1): Linear(in_features=18, out_features=31, bias=True)
  (layer_out): Linear(in_features=31, out_features=1, bias=True)
  (relu): ReLU()
)
    --> Start regularising_EU_LG_UA
Try trim model: Copy model and delete nodes success
    --> Start module_EU_LG
[ 48.39%] ------------> Checking nodes...
TwoLayerNet(
  (layer_1): Linear(in_features=18, out_features=31, bias=True)
  (layer_out): Linear(in_features=31, out_features=1, bias=True)
  (relu): ReLU()
)
    --> Start regularising_EU_LG_UA
Try trim model: Copy model and delete nodes success
    --> Start module_EU_LG
[ 51.61%] ------------> Checking nodes...
TwoLayerNet(
  (layer_1): Linear(in_features=18, out_features=31, bias=True)
  (layer_out): Linear(in_features=31, out_features=1, bias=True)
  (relu): ReLU()
)
    --> Start regularising_EU_LG_UA
Try trim model: Copy model and delete nodes success
    --> Start module_EU_LG
[ 54.84%] ------------> Checking nodes...
TwoLayerNet(
  (layer_1): Linear(in_features=18, out_features=31, bias=True)
  (layer_out): Linear(in_features=31, out_features=1, bias=True)
  (relu): ReLU()
)
    --> Start regularising_EU_LG_UA
Try trim model: Copy model and delete nodes success
    --> Start module_EU_LG
[ 58.06%] ------------> Checking nodes...
TwoLayerNet(
  (layer_1): Linear(in_features=18, out_features=31, bias=True)
  (layer_out): Linear(in_features=31, out_features=1, bias=True)
  (relu): ReLU()
)
    --> Start regularising_EU_LG_UA
Try trim model: Copy model and delete nodes success
    --> Start module_EU_LG
[ 61.29%] ------------> Checking nodes...
TwoLayerNet(
  (layer_1): Linear(in_features=18, out_features=31, bias=True)
  (layer_out): Linear(in_features=31, out_features=1, bias=True)
  (relu): ReLU()
)
    --> Start regularising_EU_LG_UA
Try trim model: Copy model and delete nodes success
    --> Start module_EU_LG
[ 64.52%] ------------> Checking nodes...
TwoLayerNet(
  (layer_1): Linear(in_features=18, out_features=31, bias=True)
  (layer_out): Linear(in_features=31, out_features=1, bias=True)
  (relu): ReLU()
)
    --> Start regularising_EU_LG_UA
Try trim model: Copy model and delete nodes success
    --> Start module_EU_LG
[ 67.74%] ------------> Checking nodes...
TwoLayerNet(
  (layer_1): Linear(in_features=18, out_features=31, bias=True)
  (layer_out): Linear(in_features=31, out_features=1, bias=True)
  (relu): ReLU()
)
    --> Start regularising_EU_LG_UA
Try trim model: Copy model and delete nodes success
    --> Start module_EU_LG
[ 70.97%] ------------> Checking nodes...
TwoLayerNet(
  (layer_1): Linear(in_features=18, out_features=31, bias=True)
  (layer_out): Linear(in_features=31, out_features=1, bias=True)
  (relu): ReLU()
)
    --> Start regularising_EU_LG_UA
Try trim model: Copy model and delete nodes success
    --> Start module_EU_LG
[ 74.19%] ------------> Checking nodes...
TwoLayerNet(
  (layer_1): Linear(in_features=18, out_features=31, bias=True)
  (layer_out): Linear(in_features=31, out_features=1, bias=True)
  (relu): ReLU()
)
    --> Start regularising_EU_LG_UA
Try trim model: Copy model and delete nodes success
    --> Start module_EU_LG
[ 77.42%] ------------> Checking nodes...
TwoLayerNet(
  (layer_1): Linear(in_features=18, out_features=31, bias=True)
  (layer_out): Linear(in_features=31, out_features=1, bias=True)
  (relu): ReLU()
)
    --> Start regularising_EU_LG_UA
Try trim model: Copy model and delete nodes success
    --> Start module_EU_LG
[ 80.65%] ------------> Checking nodes...
TwoLayerNet(
  (layer_1): Linear(in_features=18, out_features=31, bias=True)
  (layer_out): Linear(in_features=31, out_features=1, bias=True)
  (relu): ReLU()
)
    --> Start regularising_EU_LG_UA
Try trim model: Copy model and delete nodes success
    --> Start module_EU_LG
[ 83.87%] ------------> Checking nodes...
TwoLayerNet(
  (layer_1): Linear(in_features=18, out_features=31, bias=True)
  (layer_out): Linear(in_features=31, out_features=1, bias=True)
  (relu): ReLU()
)
    --> Start regularising_EU_LG_UA
Try trim model: Copy model and delete nodes success
    --> Start module_EU_LG
[ 87.10%] ------------> Checking nodes...
TwoLayerNet(
  (layer_1): Linear(in_features=18, out_features=31, bias=True)
  (layer_out): Linear(in_features=31, out_features=1, bias=True)
  (relu): ReLU()
)
    --> Start regularising_EU_LG_UA
Try trim model: Copy model and delete nodes success
    --> Start module_EU_LG
[ 90.32%] ------------> Checking nodes...
TwoLayerNet(
  (layer_1): Linear(in_features=18, out_features=31, bias=True)
  (layer_out): Linear(in_features=31, out_features=1, bias=True)
  (relu): ReLU()
)
    --> Start regularising_EU_LG_UA
Try trim model: Copy model and delete nodes success
    --> Start module_EU_LG
[ 93.55%] ------------> Checking nodes...
TwoLayerNet(
  (layer_1): Linear(in_features=18, out_features=31, bias=True)
  (layer_out): Linear(in_features=31, out_features=1, bias=True)
  (relu): ReLU()
)
    --> Start regularising_EU_LG_UA
Try trim model: Copy model and delete nodes success
    --> Start module_EU_LG
[ 96.77%] ------------> Checking nodes...
TwoLayerNet(
  (layer_1): Linear(in_features=18, out_features=31, bias=True)
  (layer_out): Linear(in_features=31, out_features=1, bias=True)
  (relu): ReLU()
)
    --> Start regularising_EU_LG_UA
Try trim model: Copy model and delete nodes success
    --> Start module_EU_LG
model after reorg: TwoLayerNet(
  (layer_1): Linear(in_features=18, out_features=31, bias=True)
  (layer_out): Linear(in_features=31, out_features=1, bias=True)
  (relu): ReLU()
)
### New lts ###
Total obtaining n: 338
obtaining n over lr goal: 0
Total select n: 343
select n over lr goal: 5
//////////// Start module_EU_LG Epoch ///////////
Finish epoch. non acceptable module at max eps tensor([28321417.8109], dtype=torch.float64, grad_fn=<UnbindBackward0>)
////////// Start CRAM and REORG with unacceptable wt //////////
model after wt: TwoLayerNet(
  (layer_1): Linear(in_features=18, out_features=31, bias=True)
  (layer_out): Linear(in_features=31, out_features=1, bias=True)
  (relu): ReLU()
)
eps_square (last 10) before cram: tensor([[6.9074],
        [7.2064],
        [7.2828],
        [7.3420],
        [7.3804],
        [8.4559],
        [8.5033],
        [8.5618],
        [8.9763],
        [9.0487]], dtype=torch.float64, grad_fn=<SliceBackward0>)
cramming sample 338th |0.00% total of 5
cramming sample 339th |20.00% total of 5
cramming sample 340th |40.00% total of 5
cramming sample 341th |60.00% total of 5
cramming sample 342th |80.00% total of 5
model after cram: TwoLayerNet(
  (layer_1): Linear(in_features=18, out_features=46, bias=True)
  (layer_out): Linear(in_features=46, out_features=1, bias=True)
  (relu): ReLU()
)
eps_sqaure (last 10) after cram: tensor([[6.9074e+00],
        [7.2064e+00],
        [7.2828e+00],
        [7.3420e+00],
        [7.3804e+00],
        [6.3557e-23],
        [1.0469e-24],
        [3.1032e-23],
        [5.6300e-23],
        [2.6314e-22]], dtype=torch.float64, grad_fn=<SliceBackward0>)
Acceptable SLFN exist in 'acceptable/cram.pth'.
=================== reorganising ===================
[ 0.00%] ------------> Checking nodes...
TwoLayerNet(
  (layer_1): Linear(in_features=18, out_features=46, bias=True)
  (layer_out): Linear(in_features=46, out_features=1, bias=True)
  (relu): ReLU()
)
    --> Start regularising_EU_LG_UA
Try trim model: Copy model and delete nodes success
    --> Start module_EU_LG
[ 2.17%] ------------> Checking nodes...
TwoLayerNet(
  (layer_1): Linear(in_features=18, out_features=46, bias=True)
  (layer_out): Linear(in_features=46, out_features=1, bias=True)
  (relu): ReLU()
)
    --> Start regularising_EU_LG_UA
Try trim model: Copy model and delete nodes success
    --> Start module_EU_LG
[ 4.35%] ------------> Checking nodes...
TwoLayerNet(
  (layer_1): Linear(in_features=18, out_features=46, bias=True)
  (layer_out): Linear(in_features=46, out_features=1, bias=True)
  (relu): ReLU()
)
    --> Start regularising_EU_LG_UA
Try trim model: Copy model and delete nodes success
    --> Start module_EU_LG
[ 6.52%] ------------> Checking nodes...
TwoLayerNet(
  (layer_1): Linear(in_features=18, out_features=46, bias=True)
  (layer_out): Linear(in_features=46, out_features=1, bias=True)
  (relu): ReLU()
)
    --> Start regularising_EU_LG_UA
Try trim model: Copy model and delete nodes success
    --> Start module_EU_LG
[ 8.70%] ------------> Checking nodes...
TwoLayerNet(
  (layer_1): Linear(in_features=18, out_features=46, bias=True)
  (layer_out): Linear(in_features=46, out_features=1, bias=True)
  (relu): ReLU()
)
    --> Start regularising_EU_LG_UA
Try trim model: Copy model and delete nodes success
    --> Start module_EU_LG
[ 10.87%] ------------> Checking nodes...
TwoLayerNet(
  (layer_1): Linear(in_features=18, out_features=46, bias=True)
  (layer_out): Linear(in_features=46, out_features=1, bias=True)
  (relu): ReLU()
)
    --> Start regularising_EU_LG_UA
Try trim model: Copy model and delete nodes success
    --> Start module_EU_LG
[ 13.04%] ------------> Checking nodes...
TwoLayerNet(
  (layer_1): Linear(in_features=18, out_features=46, bias=True)
  (layer_out): Linear(in_features=46, out_features=1, bias=True)
  (relu): ReLU()
)
    --> Start regularising_EU_LG_UA
Try trim model: Copy model and delete nodes success
    --> Start module_EU_LG
[ 15.22%] ------------> Checking nodes...
TwoLayerNet(
  (layer_1): Linear(in_features=18, out_features=46, bias=True)
  (layer_out): Linear(in_features=46, out_features=1, bias=True)
  (relu): ReLU()
)
    --> Start regularising_EU_LG_UA
Try trim model: Copy model and delete nodes success
    --> Start module_EU_LG
[ 17.39%] ------------> Checking nodes...
TwoLayerNet(
  (layer_1): Linear(in_features=18, out_features=46, bias=True)
  (layer_out): Linear(in_features=46, out_features=1, bias=True)
  (relu): ReLU()
)
    --> Start regularising_EU_LG_UA
Try trim model: Copy model and delete nodes success
    --> Start module_EU_LG
[ 19.57%] ------------> Checking nodes...
TwoLayerNet(
  (layer_1): Linear(in_features=18, out_features=46, bias=True)
  (layer_out): Linear(in_features=46, out_features=1, bias=True)
  (relu): ReLU()
)
    --> Start regularising_EU_LG_UA
Try trim model: Copy model and delete nodes success
    --> Start module_EU_LG
[ 21.74%] ------------> Checking nodes...
TwoLayerNet(
  (layer_1): Linear(in_features=18, out_features=46, bias=True)
  (layer_out): Linear(in_features=46, out_features=1, bias=True)
  (relu): ReLU()
)
    --> Start regularising_EU_LG_UA
Try trim model: Copy model and delete nodes success
    --> Start module_EU_LG
[ 23.91%] ------------> Checking nodes...
TwoLayerNet(
  (layer_1): Linear(in_features=18, out_features=46, bias=True)
  (layer_out): Linear(in_features=46, out_features=1, bias=True)
  (relu): ReLU()
)
    --> Start regularising_EU_LG_UA
Try trim model: Copy model and delete nodes success
    --> Start module_EU_LG
[ 26.09%] ------------> Checking nodes...
TwoLayerNet(
  (layer_1): Linear(in_features=18, out_features=46, bias=True)
  (layer_out): Linear(in_features=46, out_features=1, bias=True)
  (relu): ReLU()
)
    --> Start regularising_EU_LG_UA
Try trim model: Copy model and delete nodes success
    --> Start module_EU_LG
[ 28.26%] ------------> Checking nodes...
TwoLayerNet(
  (layer_1): Linear(in_features=18, out_features=46, bias=True)
  (layer_out): Linear(in_features=46, out_features=1, bias=True)
  (relu): ReLU()
)
    --> Start regularising_EU_LG_UA
Try trim model: Copy model and delete nodes success
    --> Start module_EU_LG
[ 30.43%] ------------> Checking nodes...
TwoLayerNet(
  (layer_1): Linear(in_features=18, out_features=46, bias=True)
  (layer_out): Linear(in_features=46, out_features=1, bias=True)
  (relu): ReLU()
)
    --> Start regularising_EU_LG_UA
Try trim model: Copy model and delete nodes success
    --> Start module_EU_LG
[ 32.61%] ------------> Checking nodes...
TwoLayerNet(
  (layer_1): Linear(in_features=18, out_features=46, bias=True)
  (layer_out): Linear(in_features=46, out_features=1, bias=True)
  (relu): ReLU()
)
    --> Start regularising_EU_LG_UA
Try trim model: Copy model and delete nodes success
    --> Start module_EU_LG
[ 34.78%] ------------> Checking nodes...
TwoLayerNet(
  (layer_1): Linear(in_features=18, out_features=46, bias=True)
  (layer_out): Linear(in_features=46, out_features=1, bias=True)
  (relu): ReLU()
)
    --> Start regularising_EU_LG_UA
Try trim model: Copy model and delete nodes success
    --> Start module_EU_LG
[ 36.96%] ------------> Checking nodes...
TwoLayerNet(
  (layer_1): Linear(in_features=18, out_features=46, bias=True)
  (layer_out): Linear(in_features=46, out_features=1, bias=True)
  (relu): ReLU()
)
    --> Start regularising_EU_LG_UA
Try trim model: Copy model and delete nodes success
    --> Start module_EU_LG
[ 39.13%] ------------> Checking nodes...
TwoLayerNet(
  (layer_1): Linear(in_features=18, out_features=46, bias=True)
  (layer_out): Linear(in_features=46, out_features=1, bias=True)
  (relu): ReLU()
)
    --> Start regularising_EU_LG_UA
Try trim model: Copy model and delete nodes success
    --> Start module_EU_LG
[ 41.30%] ------------> Checking nodes...
TwoLayerNet(
  (layer_1): Linear(in_features=18, out_features=46, bias=True)
  (layer_out): Linear(in_features=46, out_features=1, bias=True)
  (relu): ReLU()
)
    --> Start regularising_EU_LG_UA
Try trim model: Copy model and delete nodes success
    --> Start module_EU_LG
[ 43.48%] ------------> Checking nodes...
TwoLayerNet(
  (layer_1): Linear(in_features=18, out_features=46, bias=True)
  (layer_out): Linear(in_features=46, out_features=1, bias=True)
  (relu): ReLU()
)
    --> Start regularising_EU_LG_UA
Try trim model: Copy model and delete nodes success
    --> Start module_EU_LG
[ 45.65%] ------------> Checking nodes...
TwoLayerNet(
  (layer_1): Linear(in_features=18, out_features=46, bias=True)
  (layer_out): Linear(in_features=46, out_features=1, bias=True)
  (relu): ReLU()
)
    --> Start regularising_EU_LG_UA
Try trim model: Copy model and delete nodes success
    --> Start module_EU_LG
[ 47.83%] ------------> Checking nodes...
TwoLayerNet(
  (layer_1): Linear(in_features=18, out_features=46, bias=True)
  (layer_out): Linear(in_features=46, out_features=1, bias=True)
  (relu): ReLU()
)
    --> Start regularising_EU_LG_UA
Try trim model: Copy model and delete nodes success
    --> Start module_EU_LG
[ 50.00%] ------------> Checking nodes...
TwoLayerNet(
  (layer_1): Linear(in_features=18, out_features=46, bias=True)
  (layer_out): Linear(in_features=46, out_features=1, bias=True)
  (relu): ReLU()
)
    --> Start regularising_EU_LG_UA
Try trim model: Copy model and delete nodes success
    --> Start module_EU_LG
[ 52.17%] ------------> Checking nodes...
TwoLayerNet(
  (layer_1): Linear(in_features=18, out_features=46, bias=True)
  (layer_out): Linear(in_features=46, out_features=1, bias=True)
  (relu): ReLU()
)
    --> Start regularising_EU_LG_UA
Try trim model: Copy model and delete nodes success
    --> Start module_EU_LG
[ 54.35%] ------------> Checking nodes...
TwoLayerNet(
  (layer_1): Linear(in_features=18, out_features=46, bias=True)
  (layer_out): Linear(in_features=46, out_features=1, bias=True)
  (relu): ReLU()
)
    --> Start regularising_EU_LG_UA
Try trim model: Copy model and delete nodes success
    --> Start module_EU_LG
[ 56.52%] ------------> Checking nodes...
TwoLayerNet(
  (layer_1): Linear(in_features=18, out_features=46, bias=True)
  (layer_out): Linear(in_features=46, out_features=1, bias=True)
  (relu): ReLU()
)
    --> Start regularising_EU_LG_UA
Try trim model: Copy model and delete nodes success
    --> Start module_EU_LG
[ 58.70%] ------------> Checking nodes...
TwoLayerNet(
  (layer_1): Linear(in_features=18, out_features=46, bias=True)
  (layer_out): Linear(in_features=46, out_features=1, bias=True)
  (relu): ReLU()
)
    --> Start regularising_EU_LG_UA
Try trim model: Copy model and delete nodes success
    --> Start module_EU_LG
[ 60.87%] ------------> Checking nodes...
TwoLayerNet(
  (layer_1): Linear(in_features=18, out_features=46, bias=True)
  (layer_out): Linear(in_features=46, out_features=1, bias=True)
  (relu): ReLU()
)
    --> Start regularising_EU_LG_UA
Try trim model: Copy model and delete nodes success
    --> Start module_EU_LG
[ 63.04%] ------------> Checking nodes...
TwoLayerNet(
  (layer_1): Linear(in_features=18, out_features=46, bias=True)
  (layer_out): Linear(in_features=46, out_features=1, bias=True)
  (relu): ReLU()
)
    --> Start regularising_EU_LG_UA
Try trim model: Copy model and delete nodes success
    --> Start module_EU_LG
[ 65.22%] ------------> Checking nodes...
TwoLayerNet(
  (layer_1): Linear(in_features=18, out_features=46, bias=True)
  (layer_out): Linear(in_features=46, out_features=1, bias=True)
  (relu): ReLU()
)
    --> Start regularising_EU_LG_UA
Try trim model: Copy model and delete nodes success
    --> Start module_EU_LG
[ 67.39%] ------------> Checking nodes...
TwoLayerNet(
  (layer_1): Linear(in_features=18, out_features=46, bias=True)
  (layer_out): Linear(in_features=46, out_features=1, bias=True)
  (relu): ReLU()
)
    --> Start regularising_EU_LG_UA
Try trim model: Copy model and delete nodes success
    --> Start module_EU_LG
[ 69.57%] ------------> Checking nodes...
TwoLayerNet(
  (layer_1): Linear(in_features=18, out_features=46, bias=True)
  (layer_out): Linear(in_features=46, out_features=1, bias=True)
  (relu): ReLU()
)
    --> Start regularising_EU_LG_UA
Try trim model: Copy model and delete nodes success
    --> Start module_EU_LG
[ 71.74%] ------------> Checking nodes...
TwoLayerNet(
  (layer_1): Linear(in_features=18, out_features=46, bias=True)
  (layer_out): Linear(in_features=46, out_features=1, bias=True)
  (relu): ReLU()
)
    --> Start regularising_EU_LG_UA
Try trim model: Copy model and delete nodes success
    --> Start module_EU_LG
[ 73.91%] ------------> Checking nodes...
TwoLayerNet(
  (layer_1): Linear(in_features=18, out_features=46, bias=True)
  (layer_out): Linear(in_features=46, out_features=1, bias=True)
  (relu): ReLU()
)
    --> Start regularising_EU_LG_UA
Try trim model: Copy model and delete nodes success
    --> Start module_EU_LG
[ 76.09%] ------------> Checking nodes...
TwoLayerNet(
  (layer_1): Linear(in_features=18, out_features=46, bias=True)
  (layer_out): Linear(in_features=46, out_features=1, bias=True)
  (relu): ReLU()
)
    --> Start regularising_EU_LG_UA
Try trim model: Copy model and delete nodes success
    --> Start module_EU_LG
[ 78.26%] ------------> Checking nodes...
TwoLayerNet(
  (layer_1): Linear(in_features=18, out_features=46, bias=True)
  (layer_out): Linear(in_features=46, out_features=1, bias=True)
  (relu): ReLU()
)
    --> Start regularising_EU_LG_UA
Try trim model: Copy model and delete nodes success
    --> Start module_EU_LG
[ 80.43%] ------------> Checking nodes...
TwoLayerNet(
  (layer_1): Linear(in_features=18, out_features=46, bias=True)
  (layer_out): Linear(in_features=46, out_features=1, bias=True)
  (relu): ReLU()
)
    --> Start regularising_EU_LG_UA
Try trim model: Copy model and delete nodes success
    --> Start module_EU_LG
[ 82.61%] ------------> Checking nodes...
TwoLayerNet(
  (layer_1): Linear(in_features=18, out_features=46, bias=True)
  (layer_out): Linear(in_features=46, out_features=1, bias=True)
  (relu): ReLU()
)
    --> Start regularising_EU_LG_UA
Try trim model: Copy model and delete nodes success
    --> Start module_EU_LG
[ 84.78%] ------------> Checking nodes...
TwoLayerNet(
  (layer_1): Linear(in_features=18, out_features=46, bias=True)
  (layer_out): Linear(in_features=46, out_features=1, bias=True)
  (relu): ReLU()
)
    --> Start regularising_EU_LG_UA
Try trim model: Copy model and delete nodes success
    --> Start module_EU_LG
[ 86.96%] ------------> Checking nodes...
TwoLayerNet(
  (layer_1): Linear(in_features=18, out_features=46, bias=True)
  (layer_out): Linear(in_features=46, out_features=1, bias=True)
  (relu): ReLU()
)
    --> Start regularising_EU_LG_UA
Try trim model: Copy model and delete nodes success
    --> Start module_EU_LG
[ 89.13%] ------------> Checking nodes...
TwoLayerNet(
  (layer_1): Linear(in_features=18, out_features=46, bias=True)
  (layer_out): Linear(in_features=46, out_features=1, bias=True)
  (relu): ReLU()
)
    --> Start regularising_EU_LG_UA
Try trim model: Copy model and delete nodes success
    --> Start module_EU_LG
[ 91.30%] ------------> Checking nodes...
TwoLayerNet(
  (layer_1): Linear(in_features=18, out_features=46, bias=True)
  (layer_out): Linear(in_features=46, out_features=1, bias=True)
  (relu): ReLU()
)
    --> Start regularising_EU_LG_UA
Try trim model: Copy model and delete nodes success
    --> Start module_EU_LG
[ 93.48%] ------------> Checking nodes...
TwoLayerNet(
  (layer_1): Linear(in_features=18, out_features=46, bias=True)
  (layer_out): Linear(in_features=46, out_features=1, bias=True)
  (relu): ReLU()
)
    --> Start regularising_EU_LG_UA
Try trim model: Copy model and delete nodes success
    --> Start module_EU_LG
[ 95.65%] ------------> Checking nodes...
TwoLayerNet(
  (layer_1): Linear(in_features=18, out_features=46, bias=True)
  (layer_out): Linear(in_features=46, out_features=1, bias=True)
  (relu): ReLU()
)
    --> Start regularising_EU_LG_UA
Try trim model: Copy model and delete nodes success
    --> Start module_EU_LG
[ 97.83%] ------------> Checking nodes...
TwoLayerNet(
  (layer_1): Linear(in_features=18, out_features=46, bias=True)
  (layer_out): Linear(in_features=46, out_features=1, bias=True)
  (relu): ReLU()
)
    --> Start regularising_EU_LG_UA
Try trim model: Copy model and delete nodes success
    --> Start module_EU_LG
model after reorg: TwoLayerNet(
  (layer_1): Linear(in_features=18, out_features=46, bias=True)
  (layer_out): Linear(in_features=46, out_features=1, bias=True)
  (relu): ReLU()
)
### New lts ###
Total obtaining n: 343
obtaining n over lr goal: 0
Total select n: 348
select n over lr goal: 5
//////////// Start module_EU_LG Epoch ///////////
Lr too small. non acceptable module at max eps tensor([42532064.6880], dtype=torch.float64, grad_fn=<UnbindBackward0>)
////////// Start CRAM and REORG with unacceptable wt //////////
model after wt: TwoLayerNet(
  (layer_1): Linear(in_features=18, out_features=46, bias=True)
  (layer_out): Linear(in_features=46, out_features=1, bias=True)
  (relu): ReLU()
)
eps_square (last 10) before cram: tensor([[6.9074],
        [7.2064],
        [7.2828],
        [7.3420],
        [7.3804],
        [9.1321],
        [9.2689],
        [9.3818],
        [9.4262],
        [9.5003]], dtype=torch.float64, grad_fn=<SliceBackward0>)
cramming sample 343th |0.00% total of 5
cramming sample 344th |20.00% total of 5
cramming sample 345th |40.00% total of 5
cramming sample 346th |60.00% total of 5
cramming sample 347th |80.00% total of 5
model after cram: TwoLayerNet(
  (layer_1): Linear(in_features=18, out_features=61, bias=True)
  (layer_out): Linear(in_features=61, out_features=1, bias=True)
  (relu): ReLU()
)
eps_sqaure (last 10) after cram: tensor([[6.9074e+00],
        [7.2064e+00],
        [7.2828e+00],
        [7.3420e+00],
        [7.3804e+00],
        [2.8119e-24],
        [1.6285e-22],
        [1.3704e-23],
        [7.5268e-23],
        [1.9785e-23]], dtype=torch.float64, grad_fn=<SliceBackward0>)
Acceptable SLFN exist in 'acceptable/cram.pth'.
=================== reorganising ===================
[ 0.00%] ------------> Checking nodes...
TwoLayerNet(
  (layer_1): Linear(in_features=18, out_features=61, bias=True)
  (layer_out): Linear(in_features=61, out_features=1, bias=True)
  (relu): ReLU()
)
    --> Start regularising_EU_LG_UA
Try trim model: Copy model and delete nodes success
    --> Start module_EU_LG
[ 1.64%] ------------> Checking nodes...
TwoLayerNet(
  (layer_1): Linear(in_features=18, out_features=61, bias=True)
  (layer_out): Linear(in_features=61, out_features=1, bias=True)
  (relu): ReLU()
)
    --> Start regularising_EU_LG_UA
Try trim model: Copy model and delete nodes success
    --> Start module_EU_LG
[ 3.28%] ------------> Checking nodes...
TwoLayerNet(
  (layer_1): Linear(in_features=18, out_features=61, bias=True)
  (layer_out): Linear(in_features=61, out_features=1, bias=True)
  (relu): ReLU()
)
    --> Start regularising_EU_LG_UA
Try trim model: Copy model and delete nodes success
    --> Start module_EU_LG
[ 4.92%] ------------> Checking nodes...
TwoLayerNet(
  (layer_1): Linear(in_features=18, out_features=61, bias=True)
  (layer_out): Linear(in_features=61, out_features=1, bias=True)
  (relu): ReLU()
)
    --> Start regularising_EU_LG_UA
Try trim model: Copy model and delete nodes success
    --> Start module_EU_LG
[ 6.56%] ------------> Checking nodes...
TwoLayerNet(
  (layer_1): Linear(in_features=18, out_features=61, bias=True)
  (layer_out): Linear(in_features=61, out_features=1, bias=True)
  (relu): ReLU()
)
    --> Start regularising_EU_LG_UA
Try trim model: Copy model and delete nodes success
    --> Start module_EU_LG
[ 8.20%] ------------> Checking nodes...
TwoLayerNet(
  (layer_1): Linear(in_features=18, out_features=61, bias=True)
  (layer_out): Linear(in_features=61, out_features=1, bias=True)
  (relu): ReLU()
)
    --> Start regularising_EU_LG_UA
Try trim model: Copy model and delete nodes success
    --> Start module_EU_LG
[ 9.84%] ------------> Checking nodes...
TwoLayerNet(
  (layer_1): Linear(in_features=18, out_features=61, bias=True)
  (layer_out): Linear(in_features=61, out_features=1, bias=True)
  (relu): ReLU()
)
    --> Start regularising_EU_LG_UA
Try trim model: Copy model and delete nodes success
    --> Start module_EU_LG
[ 11.48%] ------------> Checking nodes...
TwoLayerNet(
  (layer_1): Linear(in_features=18, out_features=61, bias=True)
  (layer_out): Linear(in_features=61, out_features=1, bias=True)
  (relu): ReLU()
)
    --> Start regularising_EU_LG_UA
Try trim model: Copy model and delete nodes success
    --> Start module_EU_LG
[ 13.11%] ------------> Checking nodes...
TwoLayerNet(
  (layer_1): Linear(in_features=18, out_features=61, bias=True)
  (layer_out): Linear(in_features=61, out_features=1, bias=True)
  (relu): ReLU()
)
    --> Start regularising_EU_LG_UA
Try trim model: Copy model and delete nodes success
    --> Start module_EU_LG
[ 14.75%] ------------> Checking nodes...
TwoLayerNet(
  (layer_1): Linear(in_features=18, out_features=61, bias=True)
  (layer_out): Linear(in_features=61, out_features=1, bias=True)
  (relu): ReLU()
)
    --> Start regularising_EU_LG_UA
Try trim model: Copy model and delete nodes success
    --> Start module_EU_LG
[ 16.39%] ------------> Checking nodes...
TwoLayerNet(
  (layer_1): Linear(in_features=18, out_features=61, bias=True)
  (layer_out): Linear(in_features=61, out_features=1, bias=True)
  (relu): ReLU()
)
    --> Start regularising_EU_LG_UA
Try trim model: Copy model and delete nodes success
    --> Start module_EU_LG
[ 18.03%] ------------> Checking nodes...
TwoLayerNet(
  (layer_1): Linear(in_features=18, out_features=61, bias=True)
  (layer_out): Linear(in_features=61, out_features=1, bias=True)
  (relu): ReLU()
)
    --> Start regularising_EU_LG_UA
Try trim model: Copy model and delete nodes success
    --> Start module_EU_LG
[ 19.67%] ------------> Checking nodes...
TwoLayerNet(
  (layer_1): Linear(in_features=18, out_features=61, bias=True)
  (layer_out): Linear(in_features=61, out_features=1, bias=True)
  (relu): ReLU()
)
    --> Start regularising_EU_LG_UA
Try trim model: Copy model and delete nodes success
    --> Start module_EU_LG
[ 21.31%] ------------> Checking nodes...
TwoLayerNet(
  (layer_1): Linear(in_features=18, out_features=61, bias=True)
  (layer_out): Linear(in_features=61, out_features=1, bias=True)
  (relu): ReLU()
)
    --> Start regularising_EU_LG_UA
Try trim model: Copy model and delete nodes success
    --> Start module_EU_LG
[ 22.95%] ------------> Checking nodes...
TwoLayerNet(
  (layer_1): Linear(in_features=18, out_features=61, bias=True)
  (layer_out): Linear(in_features=61, out_features=1, bias=True)
  (relu): ReLU()
)
    --> Start regularising_EU_LG_UA
Try trim model: Copy model and delete nodes success
    --> Start module_EU_LG
[ 24.59%] ------------> Checking nodes...
TwoLayerNet(
  (layer_1): Linear(in_features=18, out_features=61, bias=True)
  (layer_out): Linear(in_features=61, out_features=1, bias=True)
  (relu): ReLU()
)
    --> Start regularising_EU_LG_UA
Try trim model: Copy model and delete nodes success
    --> Start module_EU_LG
[ 26.23%] ------------> Checking nodes...
TwoLayerNet(
  (layer_1): Linear(in_features=18, out_features=61, bias=True)
  (layer_out): Linear(in_features=61, out_features=1, bias=True)
  (relu): ReLU()
)
    --> Start regularising_EU_LG_UA
Try trim model: Copy model and delete nodes success
    --> Start module_EU_LG
[ 27.87%] ------------> Checking nodes...
TwoLayerNet(
  (layer_1): Linear(in_features=18, out_features=61, bias=True)
  (layer_out): Linear(in_features=61, out_features=1, bias=True)
  (relu): ReLU()
)
    --> Start regularising_EU_LG_UA
Try trim model: Copy model and delete nodes success
    --> Start module_EU_LG
[ 29.51%] ------------> Checking nodes...
TwoLayerNet(
  (layer_1): Linear(in_features=18, out_features=61, bias=True)
  (layer_out): Linear(in_features=61, out_features=1, bias=True)
  (relu): ReLU()
)
    --> Start regularising_EU_LG_UA
Try trim model: Copy model and delete nodes success
    --> Start module_EU_LG
[ 31.15%] ------------> Checking nodes...
TwoLayerNet(
  (layer_1): Linear(in_features=18, out_features=61, bias=True)
  (layer_out): Linear(in_features=61, out_features=1, bias=True)
  (relu): ReLU()
)
    --> Start regularising_EU_LG_UA
Try trim model: Copy model and delete nodes success
    --> Start module_EU_LG
[ 32.79%] ------------> Checking nodes...
TwoLayerNet(
  (layer_1): Linear(in_features=18, out_features=61, bias=True)
  (layer_out): Linear(in_features=61, out_features=1, bias=True)
  (relu): ReLU()
)
    --> Start regularising_EU_LG_UA
Try trim model: Copy model and delete nodes success
    --> Start module_EU_LG
[ 34.43%] ------------> Checking nodes...
TwoLayerNet(
  (layer_1): Linear(in_features=18, out_features=61, bias=True)
  (layer_out): Linear(in_features=61, out_features=1, bias=True)
  (relu): ReLU()
)
    --> Start regularising_EU_LG_UA
Try trim model: Copy model and delete nodes success
    --> Start module_EU_LG
[ 36.07%] ------------> Checking nodes...
TwoLayerNet(
  (layer_1): Linear(in_features=18, out_features=61, bias=True)
  (layer_out): Linear(in_features=61, out_features=1, bias=True)
  (relu): ReLU()
)
    --> Start regularising_EU_LG_UA
Try trim model: Copy model and delete nodes success
    --> Start module_EU_LG
[ 37.70%] ------------> Checking nodes...
TwoLayerNet(
  (layer_1): Linear(in_features=18, out_features=61, bias=True)
  (layer_out): Linear(in_features=61, out_features=1, bias=True)
  (relu): ReLU()
)
    --> Start regularising_EU_LG_UA
Try trim model: Copy model and delete nodes success
    --> Start module_EU_LG
[ 39.34%] ------------> Checking nodes...
TwoLayerNet(
  (layer_1): Linear(in_features=18, out_features=61, bias=True)
  (layer_out): Linear(in_features=61, out_features=1, bias=True)
  (relu): ReLU()
)
    --> Start regularising_EU_LG_UA
Try trim model: Copy model and delete nodes success
    --> Start module_EU_LG
[ 40.98%] ------------> Checking nodes...
TwoLayerNet(
  (layer_1): Linear(in_features=18, out_features=61, bias=True)
  (layer_out): Linear(in_features=61, out_features=1, bias=True)
  (relu): ReLU()
)
    --> Start regularising_EU_LG_UA
Try trim model: Copy model and delete nodes success
    --> Start module_EU_LG
[ 42.62%] ------------> Checking nodes...
TwoLayerNet(
  (layer_1): Linear(in_features=18, out_features=61, bias=True)
  (layer_out): Linear(in_features=61, out_features=1, bias=True)
  (relu): ReLU()
)
    --> Start regularising_EU_LG_UA
Try trim model: Copy model and delete nodes success
    --> Start module_EU_LG
[ 44.26%] ------------> Checking nodes...
TwoLayerNet(
  (layer_1): Linear(in_features=18, out_features=61, bias=True)
  (layer_out): Linear(in_features=61, out_features=1, bias=True)
  (relu): ReLU()
)
    --> Start regularising_EU_LG_UA
Try trim model: Copy model and delete nodes success
    --> Start module_EU_LG
[ 45.90%] ------------> Checking nodes...
TwoLayerNet(
  (layer_1): Linear(in_features=18, out_features=61, bias=True)
  (layer_out): Linear(in_features=61, out_features=1, bias=True)
  (relu): ReLU()
)
    --> Start regularising_EU_LG_UA
Try trim model: Copy model and delete nodes success
    --> Start module_EU_LG
[ 47.54%] ------------> Checking nodes...
TwoLayerNet(
  (layer_1): Linear(in_features=18, out_features=61, bias=True)
  (layer_out): Linear(in_features=61, out_features=1, bias=True)
  (relu): ReLU()
)
    --> Start regularising_EU_LG_UA
Try trim model: Copy model and delete nodes success
    --> Start module_EU_LG
[ 49.18%] ------------> Checking nodes...
TwoLayerNet(
  (layer_1): Linear(in_features=18, out_features=61, bias=True)
  (layer_out): Linear(in_features=61, out_features=1, bias=True)
  (relu): ReLU()
)
    --> Start regularising_EU_LG_UA
Try trim model: Copy model and delete nodes success
    --> Start module_EU_LG
[ 50.82%] ------------> Checking nodes...
TwoLayerNet(
  (layer_1): Linear(in_features=18, out_features=61, bias=True)
  (layer_out): Linear(in_features=61, out_features=1, bias=True)
  (relu): ReLU()
)
    --> Start regularising_EU_LG_UA
Try trim model: Copy model and delete nodes success
    --> Start module_EU_LG
[ 52.46%] ------------> Checking nodes...
TwoLayerNet(
  (layer_1): Linear(in_features=18, out_features=61, bias=True)
  (layer_out): Linear(in_features=61, out_features=1, bias=True)
  (relu): ReLU()
)
    --> Start regularising_EU_LG_UA
Try trim model: Copy model and delete nodes success
    --> Start module_EU_LG
[ 54.10%] ------------> Checking nodes...
TwoLayerNet(
  (layer_1): Linear(in_features=18, out_features=61, bias=True)
  (layer_out): Linear(in_features=61, out_features=1, bias=True)
  (relu): ReLU()
)
    --> Start regularising_EU_LG_UA
Try trim model: Copy model and delete nodes success
    --> Start module_EU_LG
[ 55.74%] ------------> Checking nodes...
TwoLayerNet(
  (layer_1): Linear(in_features=18, out_features=61, bias=True)
  (layer_out): Linear(in_features=61, out_features=1, bias=True)
  (relu): ReLU()
)
    --> Start regularising_EU_LG_UA
Try trim model: Copy model and delete nodes success
    --> Start module_EU_LG
[ 57.38%] ------------> Checking nodes...
TwoLayerNet(
  (layer_1): Linear(in_features=18, out_features=61, bias=True)
  (layer_out): Linear(in_features=61, out_features=1, bias=True)
  (relu): ReLU()
)
    --> Start regularising_EU_LG_UA
Try trim model: Copy model and delete nodes success
    --> Start module_EU_LG
[ 59.02%] ------------> Checking nodes...
TwoLayerNet(
  (layer_1): Linear(in_features=18, out_features=61, bias=True)
  (layer_out): Linear(in_features=61, out_features=1, bias=True)
  (relu): ReLU()
)
    --> Start regularising_EU_LG_UA
Try trim model: Copy model and delete nodes success
    --> Start module_EU_LG
[ 60.66%] ------------> Checking nodes...
TwoLayerNet(
  (layer_1): Linear(in_features=18, out_features=61, bias=True)
  (layer_out): Linear(in_features=61, out_features=1, bias=True)
  (relu): ReLU()
)
    --> Start regularising_EU_LG_UA
Try trim model: Copy model and delete nodes success
    --> Start module_EU_LG
[ 62.30%] ------------> Checking nodes...
TwoLayerNet(
  (layer_1): Linear(in_features=18, out_features=61, bias=True)
  (layer_out): Linear(in_features=61, out_features=1, bias=True)
  (relu): ReLU()
)
    --> Start regularising_EU_LG_UA
Try trim model: Copy model and delete nodes success
    --> Start module_EU_LG
[ 63.93%] ------------> Checking nodes...
TwoLayerNet(
  (layer_1): Linear(in_features=18, out_features=61, bias=True)
  (layer_out): Linear(in_features=61, out_features=1, bias=True)
  (relu): ReLU()
)
    --> Start regularising_EU_LG_UA
Try trim model: Copy model and delete nodes success
    --> Start module_EU_LG
[ 65.57%] ------------> Checking nodes...
TwoLayerNet(
  (layer_1): Linear(in_features=18, out_features=61, bias=True)
  (layer_out): Linear(in_features=61, out_features=1, bias=True)
  (relu): ReLU()
)
    --> Start regularising_EU_LG_UA
Try trim model: Copy model and delete nodes success
    --> Start module_EU_LG
[ 67.21%] ------------> Checking nodes...
TwoLayerNet(
  (layer_1): Linear(in_features=18, out_features=61, bias=True)
  (layer_out): Linear(in_features=61, out_features=1, bias=True)
  (relu): ReLU()
)
    --> Start regularising_EU_LG_UA
Try trim model: Copy model and delete nodes success
    --> Start module_EU_LG
[ 68.85%] ------------> Checking nodes...
TwoLayerNet(
  (layer_1): Linear(in_features=18, out_features=61, bias=True)
  (layer_out): Linear(in_features=61, out_features=1, bias=True)
  (relu): ReLU()
)
    --> Start regularising_EU_LG_UA
Try trim model: Copy model and delete nodes success
    --> Start module_EU_LG
[ 70.49%] ------------> Checking nodes...
TwoLayerNet(
  (layer_1): Linear(in_features=18, out_features=61, bias=True)
  (layer_out): Linear(in_features=61, out_features=1, bias=True)
  (relu): ReLU()
)
    --> Start regularising_EU_LG_UA
Try trim model: Copy model and delete nodes success
    --> Start module_EU_LG
[ 72.13%] ------------> Checking nodes...
TwoLayerNet(
  (layer_1): Linear(in_features=18, out_features=61, bias=True)
  (layer_out): Linear(in_features=61, out_features=1, bias=True)
  (relu): ReLU()
)
    --> Start regularising_EU_LG_UA
Try trim model: Copy model and delete nodes success
    --> Start module_EU_LG
[ 73.77%] ------------> Checking nodes...
TwoLayerNet(
  (layer_1): Linear(in_features=18, out_features=61, bias=True)
  (layer_out): Linear(in_features=61, out_features=1, bias=True)
  (relu): ReLU()
)
    --> Start regularising_EU_LG_UA
Try trim model: Copy model and delete nodes success
    --> Start module_EU_LG
[ 75.41%] ------------> Checking nodes...
TwoLayerNet(
  (layer_1): Linear(in_features=18, out_features=61, bias=True)
  (layer_out): Linear(in_features=61, out_features=1, bias=True)
  (relu): ReLU()
)
    --> Start regularising_EU_LG_UA
Try trim model: Copy model and delete nodes success
    --> Start module_EU_LG
[ 77.05%] ------------> Checking nodes...
TwoLayerNet(
  (layer_1): Linear(in_features=18, out_features=61, bias=True)
  (layer_out): Linear(in_features=61, out_features=1, bias=True)
  (relu): ReLU()
)
    --> Start regularising_EU_LG_UA
Try trim model: Copy model and delete nodes success
    --> Start module_EU_LG
[ 78.69%] ------------> Checking nodes...
TwoLayerNet(
  (layer_1): Linear(in_features=18, out_features=61, bias=True)
  (layer_out): Linear(in_features=61, out_features=1, bias=True)
  (relu): ReLU()
)
    --> Start regularising_EU_LG_UA
Try trim model: Copy model and delete nodes success
    --> Start module_EU_LG
[ 80.33%] ------------> Checking nodes...
TwoLayerNet(
  (layer_1): Linear(in_features=18, out_features=61, bias=True)
  (layer_out): Linear(in_features=61, out_features=1, bias=True)
  (relu): ReLU()
)
    --> Start regularising_EU_LG_UA
Try trim model: Copy model and delete nodes success
    --> Start module_EU_LG
[ 81.97%] ------------> Checking nodes...
TwoLayerNet(
  (layer_1): Linear(in_features=18, out_features=61, bias=True)
  (layer_out): Linear(in_features=61, out_features=1, bias=True)
  (relu): ReLU()
)
    --> Start regularising_EU_LG_UA
Try trim model: Copy model and delete nodes success
    --> Start module_EU_LG
[ 83.61%] ------------> Checking nodes...
TwoLayerNet(
  (layer_1): Linear(in_features=18, out_features=61, bias=True)
  (layer_out): Linear(in_features=61, out_features=1, bias=True)
  (relu): ReLU()
)
    --> Start regularising_EU_LG_UA
Try trim model: Copy model and delete nodes success
    --> Start module_EU_LG
[ 85.25%] ------------> Checking nodes...
TwoLayerNet(
  (layer_1): Linear(in_features=18, out_features=61, bias=True)
  (layer_out): Linear(in_features=61, out_features=1, bias=True)
  (relu): ReLU()
)
    --> Start regularising_EU_LG_UA
Try trim model: Copy model and delete nodes success
    --> Start module_EU_LG
[ 86.89%] ------------> Checking nodes...
TwoLayerNet(
  (layer_1): Linear(in_features=18, out_features=61, bias=True)
  (layer_out): Linear(in_features=61, out_features=1, bias=True)
  (relu): ReLU()
)
    --> Start regularising_EU_LG_UA
Try trim model: Copy model and delete nodes success
    --> Start module_EU_LG
[ 88.52%] ------------> Checking nodes...
TwoLayerNet(
  (layer_1): Linear(in_features=18, out_features=61, bias=True)
  (layer_out): Linear(in_features=61, out_features=1, bias=True)
  (relu): ReLU()
)
    --> Start regularising_EU_LG_UA
Try trim model: Copy model and delete nodes success
    --> Start module_EU_LG
[ 90.16%] ------------> Checking nodes...
TwoLayerNet(
  (layer_1): Linear(in_features=18, out_features=61, bias=True)
  (layer_out): Linear(in_features=61, out_features=1, bias=True)
  (relu): ReLU()
)
    --> Start regularising_EU_LG_UA
Try trim model: Copy model and delete nodes success
    --> Start module_EU_LG
[ 91.80%] ------------> Checking nodes...
TwoLayerNet(
  (layer_1): Linear(in_features=18, out_features=61, bias=True)
  (layer_out): Linear(in_features=61, out_features=1, bias=True)
  (relu): ReLU()
)
    --> Start regularising_EU_LG_UA
Try trim model: Copy model and delete nodes success
    --> Start module_EU_LG
[ 93.44%] ------------> Checking nodes...
TwoLayerNet(
  (layer_1): Linear(in_features=18, out_features=61, bias=True)
  (layer_out): Linear(in_features=61, out_features=1, bias=True)
  (relu): ReLU()
)
    --> Start regularising_EU_LG_UA
Try trim model: Copy model and delete nodes success
    --> Start module_EU_LG
[ 95.08%] ------------> Checking nodes...
TwoLayerNet(
  (layer_1): Linear(in_features=18, out_features=61, bias=True)
  (layer_out): Linear(in_features=61, out_features=1, bias=True)
  (relu): ReLU()
)
    --> Start regularising_EU_LG_UA
Try trim model: Copy model and delete nodes success
    --> Start module_EU_LG
[ 96.72%] ------------> Checking nodes...
TwoLayerNet(
  (layer_1): Linear(in_features=18, out_features=61, bias=True)
  (layer_out): Linear(in_features=61, out_features=1, bias=True)
  (relu): ReLU()
)
    --> Start regularising_EU_LG_UA
Try trim model: Copy model and delete nodes success
    --> Start module_EU_LG
[ 98.36%] ------------> Checking nodes...
TwoLayerNet(
  (layer_1): Linear(in_features=18, out_features=61, bias=True)
  (layer_out): Linear(in_features=61, out_features=1, bias=True)
  (relu): ReLU()
)
    --> Start regularising_EU_LG_UA
Try trim model: Copy model and delete nodes success
    --> Start module_EU_LG
model after reorg: TwoLayerNet(
  (layer_1): Linear(in_features=18, out_features=61, bias=True)
  (layer_out): Linear(in_features=61, out_features=1, bias=True)
  (relu): ReLU()
)
### New lts ###
Total obtaining n: 348
obtaining n over lr goal: 0
Total select n: 353
select n over lr goal: 5
//////////// Start module_EU_LG Epoch ///////////
Finish epoch. non acceptable module at max eps tensor([85611278.9903], dtype=torch.float64, grad_fn=<UnbindBackward0>)
////////// Start CRAM and REORG with unacceptable wt //////////
model after wt: TwoLayerNet(
  (layer_1): Linear(in_features=18, out_features=61, bias=True)
  (layer_out): Linear(in_features=61, out_features=1, bias=True)
  (relu): ReLU()
)
eps_square (last 10) before cram: tensor([[ 6.9074],
        [ 7.2064],
        [ 7.2828],
        [ 7.3420],
        [ 7.3804],
        [ 9.7055],
        [10.2107],
        [10.2807],
        [10.5268],
        [10.7969]], dtype=torch.float64, grad_fn=<SliceBackward0>)
cramming sample 348th |0.00% total of 5
cramming sample 349th |20.00% total of 5
cramming sample 350th |40.00% total of 5
cramming sample 351th |60.00% total of 5
cramming sample 352th |80.00% total of 5
model after cram: TwoLayerNet(
  (layer_1): Linear(in_features=18, out_features=76, bias=True)
  (layer_out): Linear(in_features=76, out_features=1, bias=True)
  (relu): ReLU()
)
eps_sqaure (last 10) after cram: tensor([[6.9074e+00],
        [7.2064e+00],
        [7.2828e+00],
        [7.3420e+00],
        [7.3804e+00],
        [3.9722e-23],
        [5.8236e-23],
        [8.4166e-22],
        [1.6180e-21],
        [6.8297e-22]], dtype=torch.float64, grad_fn=<SliceBackward0>)
Acceptable SLFN exist in 'acceptable/cram.pth'.
=================== reorganising ===================
[ 0.00%] ------------> Checking nodes...
TwoLayerNet(
  (layer_1): Linear(in_features=18, out_features=76, bias=True)
  (layer_out): Linear(in_features=76, out_features=1, bias=True)
  (relu): ReLU()
)
    --> Start regularising_EU_LG_UA
Try trim model: Copy model and delete nodes success
    --> Start module_EU_LG
[ 1.32%] ------------> Checking nodes...
TwoLayerNet(
  (layer_1): Linear(in_features=18, out_features=76, bias=True)
  (layer_out): Linear(in_features=76, out_features=1, bias=True)
  (relu): ReLU()
)
    --> Start regularising_EU_LG_UA
Try trim model: Copy model and delete nodes success
    --> Start module_EU_LG
[ 2.63%] ------------> Checking nodes...
TwoLayerNet(
  (layer_1): Linear(in_features=18, out_features=76, bias=True)
  (layer_out): Linear(in_features=76, out_features=1, bias=True)
  (relu): ReLU()
)
    --> Start regularising_EU_LG_UA
Try trim model: Copy model and delete nodes success
    --> Start module_EU_LG
[ 3.95%] ------------> Checking nodes...
TwoLayerNet(
  (layer_1): Linear(in_features=18, out_features=76, bias=True)
  (layer_out): Linear(in_features=76, out_features=1, bias=True)
  (relu): ReLU()
)
    --> Start regularising_EU_LG_UA
Try trim model: Copy model and delete nodes success
    --> Start module_EU_LG
[ 5.26%] ------------> Checking nodes...
TwoLayerNet(
  (layer_1): Linear(in_features=18, out_features=76, bias=True)
  (layer_out): Linear(in_features=76, out_features=1, bias=True)
  (relu): ReLU()
)
    --> Start regularising_EU_LG_UA
Try trim model: Copy model and delete nodes success
    --> Start module_EU_LG
[ 6.58%] ------------> Checking nodes...
TwoLayerNet(
  (layer_1): Linear(in_features=18, out_features=76, bias=True)
  (layer_out): Linear(in_features=76, out_features=1, bias=True)
  (relu): ReLU()
)
    --> Start regularising_EU_LG_UA
Try trim model: Copy model and delete nodes success
    --> Start module_EU_LG
[ 7.89%] ------------> Checking nodes...
TwoLayerNet(
  (layer_1): Linear(in_features=18, out_features=76, bias=True)
  (layer_out): Linear(in_features=76, out_features=1, bias=True)
  (relu): ReLU()
)
    --> Start regularising_EU_LG_UA
Try trim model: Copy model and delete nodes success
    --> Start module_EU_LG
[ 9.21%] ------------> Checking nodes...
TwoLayerNet(
  (layer_1): Linear(in_features=18, out_features=76, bias=True)
  (layer_out): Linear(in_features=76, out_features=1, bias=True)
  (relu): ReLU()
)
    --> Start regularising_EU_LG_UA
Try trim model: Copy model and delete nodes success
    --> Start module_EU_LG
[ 10.53%] ------------> Checking nodes...
TwoLayerNet(
  (layer_1): Linear(in_features=18, out_features=76, bias=True)
  (layer_out): Linear(in_features=76, out_features=1, bias=True)
  (relu): ReLU()
)
    --> Start regularising_EU_LG_UA
Try trim model: Copy model and delete nodes success
    --> Start module_EU_LG
[ 11.84%] ------------> Checking nodes...
TwoLayerNet(
  (layer_1): Linear(in_features=18, out_features=76, bias=True)
  (layer_out): Linear(in_features=76, out_features=1, bias=True)
  (relu): ReLU()
)
    --> Start regularising_EU_LG_UA
Try trim model: Copy model and delete nodes success
    --> Start module_EU_LG
[ 13.16%] ------------> Checking nodes...
TwoLayerNet(
  (layer_1): Linear(in_features=18, out_features=76, bias=True)
  (layer_out): Linear(in_features=76, out_features=1, bias=True)
  (relu): ReLU()
)
    --> Start regularising_EU_LG_UA
Try trim model: Copy model and delete nodes success
    --> Start module_EU_LG
[ 14.47%] ------------> Checking nodes...
TwoLayerNet(
  (layer_1): Linear(in_features=18, out_features=76, bias=True)
  (layer_out): Linear(in_features=76, out_features=1, bias=True)
  (relu): ReLU()
)
    --> Start regularising_EU_LG_UA
Try trim model: Copy model and delete nodes success
    --> Start module_EU_LG
[ 15.79%] ------------> Checking nodes...
TwoLayerNet(
  (layer_1): Linear(in_features=18, out_features=76, bias=True)
  (layer_out): Linear(in_features=76, out_features=1, bias=True)
  (relu): ReLU()
)
    --> Start regularising_EU_LG_UA
Try trim model: Copy model and delete nodes success
    --> Start module_EU_LG
[ 17.11%] ------------> Checking nodes...
TwoLayerNet(
  (layer_1): Linear(in_features=18, out_features=76, bias=True)
  (layer_out): Linear(in_features=76, out_features=1, bias=True)
  (relu): ReLU()
)
    --> Start regularising_EU_LG_UA
Try trim model: Copy model and delete nodes success
    --> Start module_EU_LG
[ 18.42%] ------------> Checking nodes...
TwoLayerNet(
  (layer_1): Linear(in_features=18, out_features=76, bias=True)
  (layer_out): Linear(in_features=76, out_features=1, bias=True)
  (relu): ReLU()
)
    --> Start regularising_EU_LG_UA
Try trim model: Copy model and delete nodes success
    --> Start module_EU_LG
[ 19.74%] ------------> Checking nodes...
TwoLayerNet(
  (layer_1): Linear(in_features=18, out_features=76, bias=True)
  (layer_out): Linear(in_features=76, out_features=1, bias=True)
  (relu): ReLU()
)
    --> Start regularising_EU_LG_UA
Try trim model: Copy model and delete nodes success
    --> Start module_EU_LG
[ 21.05%] ------------> Checking nodes...
TwoLayerNet(
  (layer_1): Linear(in_features=18, out_features=76, bias=True)
  (layer_out): Linear(in_features=76, out_features=1, bias=True)
  (relu): ReLU()
)
    --> Start regularising_EU_LG_UA
Try trim model: Copy model and delete nodes success
    --> Start module_EU_LG
[ 22.37%] ------------> Checking nodes...
TwoLayerNet(
  (layer_1): Linear(in_features=18, out_features=76, bias=True)
  (layer_out): Linear(in_features=76, out_features=1, bias=True)
  (relu): ReLU()
)
    --> Start regularising_EU_LG_UA
Try trim model: Copy model and delete nodes success
    --> Start module_EU_LG
[ 23.68%] ------------> Checking nodes...
TwoLayerNet(
  (layer_1): Linear(in_features=18, out_features=76, bias=True)
  (layer_out): Linear(in_features=76, out_features=1, bias=True)
  (relu): ReLU()
)
    --> Start regularising_EU_LG_UA
Try trim model: Copy model and delete nodes success
    --> Start module_EU_LG
[ 25.00%] ------------> Checking nodes...
TwoLayerNet(
  (layer_1): Linear(in_features=18, out_features=76, bias=True)
  (layer_out): Linear(in_features=76, out_features=1, bias=True)
  (relu): ReLU()
)
    --> Start regularising_EU_LG_UA
Try trim model: Copy model and delete nodes success
    --> Start module_EU_LG
[ 26.32%] ------------> Checking nodes...
TwoLayerNet(
  (layer_1): Linear(in_features=18, out_features=76, bias=True)
  (layer_out): Linear(in_features=76, out_features=1, bias=True)
  (relu): ReLU()
)
    --> Start regularising_EU_LG_UA
Try trim model: Copy model and delete nodes success
    --> Start module_EU_LG
[ 27.63%] ------------> Checking nodes...
TwoLayerNet(
  (layer_1): Linear(in_features=18, out_features=76, bias=True)
  (layer_out): Linear(in_features=76, out_features=1, bias=True)
  (relu): ReLU()
)
    --> Start regularising_EU_LG_UA
Try trim model: Copy model and delete nodes success
    --> Start module_EU_LG
[ 28.95%] ------------> Checking nodes...
TwoLayerNet(
  (layer_1): Linear(in_features=18, out_features=76, bias=True)
  (layer_out): Linear(in_features=76, out_features=1, bias=True)
  (relu): ReLU()
)
    --> Start regularising_EU_LG_UA
Try trim model: Copy model and delete nodes success
    --> Start module_EU_LG
[ 30.26%] ------------> Checking nodes...
TwoLayerNet(
  (layer_1): Linear(in_features=18, out_features=76, bias=True)
  (layer_out): Linear(in_features=76, out_features=1, bias=True)
  (relu): ReLU()
)
    --> Start regularising_EU_LG_UA
Try trim model: Copy model and delete nodes success
    --> Start module_EU_LG
[ 31.58%] ------------> Checking nodes...
TwoLayerNet(
  (layer_1): Linear(in_features=18, out_features=76, bias=True)
  (layer_out): Linear(in_features=76, out_features=1, bias=True)
  (relu): ReLU()
)
    --> Start regularising_EU_LG_UA
Try trim model: Copy model and delete nodes success
    --> Start module_EU_LG
[ 32.89%] ------------> Checking nodes...
TwoLayerNet(
  (layer_1): Linear(in_features=18, out_features=76, bias=True)
  (layer_out): Linear(in_features=76, out_features=1, bias=True)
  (relu): ReLU()
)
    --> Start regularising_EU_LG_UA
Try trim model: Copy model and delete nodes success
    --> Start module_EU_LG
[ 34.21%] ------------> Checking nodes...
TwoLayerNet(
  (layer_1): Linear(in_features=18, out_features=76, bias=True)
  (layer_out): Linear(in_features=76, out_features=1, bias=True)
  (relu): ReLU()
)
    --> Start regularising_EU_LG_UA
Try trim model: Copy model and delete nodes success
    --> Start module_EU_LG
[ 35.53%] ------------> Checking nodes...
TwoLayerNet(
  (layer_1): Linear(in_features=18, out_features=76, bias=True)
  (layer_out): Linear(in_features=76, out_features=1, bias=True)
  (relu): ReLU()
)
    --> Start regularising_EU_LG_UA
Try trim model: Copy model and delete nodes success
    --> Start module_EU_LG
[ 36.84%] ------------> Checking nodes...
TwoLayerNet(
  (layer_1): Linear(in_features=18, out_features=76, bias=True)
  (layer_out): Linear(in_features=76, out_features=1, bias=True)
  (relu): ReLU()
)
    --> Start regularising_EU_LG_UA
Try trim model: Copy model and delete nodes success
    --> Start module_EU_LG
[ 38.16%] ------------> Checking nodes...
TwoLayerNet(
  (layer_1): Linear(in_features=18, out_features=76, bias=True)
  (layer_out): Linear(in_features=76, out_features=1, bias=True)
  (relu): ReLU()
)
    --> Start regularising_EU_LG_UA
Try trim model: Copy model and delete nodes success
    --> Start module_EU_LG
[ 39.47%] ------------> Checking nodes...
TwoLayerNet(
  (layer_1): Linear(in_features=18, out_features=76, bias=True)
  (layer_out): Linear(in_features=76, out_features=1, bias=True)
  (relu): ReLU()
)
    --> Start regularising_EU_LG_UA
Try trim model: Copy model and delete nodes success
    --> Start module_EU_LG
[ 40.79%] ------------> Checking nodes...
TwoLayerNet(
  (layer_1): Linear(in_features=18, out_features=76, bias=True)
  (layer_out): Linear(in_features=76, out_features=1, bias=True)
  (relu): ReLU()
)
    --> Start regularising_EU_LG_UA
Try trim model: Copy model and delete nodes success
    --> Start module_EU_LG
[ 42.11%] ------------> Checking nodes...
TwoLayerNet(
  (layer_1): Linear(in_features=18, out_features=76, bias=True)
  (layer_out): Linear(in_features=76, out_features=1, bias=True)
  (relu): ReLU()
)
    --> Start regularising_EU_LG_UA
Try trim model: Copy model and delete nodes success
    --> Start module_EU_LG
[ 43.42%] ------------> Checking nodes...
TwoLayerNet(
  (layer_1): Linear(in_features=18, out_features=76, bias=True)
  (layer_out): Linear(in_features=76, out_features=1, bias=True)
  (relu): ReLU()
)
    --> Start regularising_EU_LG_UA
Try trim model: Copy model and delete nodes success
    --> Start module_EU_LG
[ 44.74%] ------------> Checking nodes...
TwoLayerNet(
  (layer_1): Linear(in_features=18, out_features=76, bias=True)
  (layer_out): Linear(in_features=76, out_features=1, bias=True)
  (relu): ReLU()
)
    --> Start regularising_EU_LG_UA
Try trim model: Copy model and delete nodes success
    --> Start module_EU_LG
[ 46.05%] ------------> Checking nodes...
TwoLayerNet(
  (layer_1): Linear(in_features=18, out_features=76, bias=True)
  (layer_out): Linear(in_features=76, out_features=1, bias=True)
  (relu): ReLU()
)
    --> Start regularising_EU_LG_UA
Try trim model: Copy model and delete nodes success
    --> Start module_EU_LG
[ 47.37%] ------------> Checking nodes...
TwoLayerNet(
  (layer_1): Linear(in_features=18, out_features=76, bias=True)
  (layer_out): Linear(in_features=76, out_features=1, bias=True)
  (relu): ReLU()
)
    --> Start regularising_EU_LG_UA
Try trim model: Copy model and delete nodes success
    --> Start module_EU_LG
[ 48.68%] ------------> Checking nodes...
TwoLayerNet(
  (layer_1): Linear(in_features=18, out_features=76, bias=True)
  (layer_out): Linear(in_features=76, out_features=1, bias=True)
  (relu): ReLU()
)
    --> Start regularising_EU_LG_UA
Try trim model: Copy model and delete nodes success
    --> Start module_EU_LG
[ 50.00%] ------------> Checking nodes...
TwoLayerNet(
  (layer_1): Linear(in_features=18, out_features=76, bias=True)
  (layer_out): Linear(in_features=76, out_features=1, bias=True)
  (relu): ReLU()
)
    --> Start regularising_EU_LG_UA
Try trim model: Copy model and delete nodes success
    --> Start module_EU_LG
[ 51.32%] ------------> Checking nodes...
TwoLayerNet(
  (layer_1): Linear(in_features=18, out_features=76, bias=True)
  (layer_out): Linear(in_features=76, out_features=1, bias=True)
  (relu): ReLU()
)
    --> Start regularising_EU_LG_UA
Try trim model: Copy model and delete nodes success
    --> Start module_EU_LG
[ 52.63%] ------------> Checking nodes...
TwoLayerNet(
  (layer_1): Linear(in_features=18, out_features=76, bias=True)
  (layer_out): Linear(in_features=76, out_features=1, bias=True)
  (relu): ReLU()
)
    --> Start regularising_EU_LG_UA
Try trim model: Copy model and delete nodes success
    --> Start module_EU_LG
[ 53.95%] ------------> Checking nodes...
TwoLayerNet(
  (layer_1): Linear(in_features=18, out_features=76, bias=True)
  (layer_out): Linear(in_features=76, out_features=1, bias=True)
  (relu): ReLU()
)
    --> Start regularising_EU_LG_UA
Try trim model: Copy model and delete nodes success
    --> Start module_EU_LG
[ 55.26%] ------------> Checking nodes...
TwoLayerNet(
  (layer_1): Linear(in_features=18, out_features=76, bias=True)
  (layer_out): Linear(in_features=76, out_features=1, bias=True)
  (relu): ReLU()
)
    --> Start regularising_EU_LG_UA
Try trim model: Copy model and delete nodes success
    --> Start module_EU_LG
[ 56.58%] ------------> Checking nodes...
TwoLayerNet(
  (layer_1): Linear(in_features=18, out_features=76, bias=True)
  (layer_out): Linear(in_features=76, out_features=1, bias=True)
  (relu): ReLU()
)
    --> Start regularising_EU_LG_UA
Try trim model: Copy model and delete nodes success
    --> Start module_EU_LG
[ 57.89%] ------------> Checking nodes...
TwoLayerNet(
  (layer_1): Linear(in_features=18, out_features=76, bias=True)
  (layer_out): Linear(in_features=76, out_features=1, bias=True)
  (relu): ReLU()
)
    --> Start regularising_EU_LG_UA
Try trim model: Copy model and delete nodes success
    --> Start module_EU_LG
[ 59.21%] ------------> Checking nodes...
TwoLayerNet(
  (layer_1): Linear(in_features=18, out_features=76, bias=True)
  (layer_out): Linear(in_features=76, out_features=1, bias=True)
  (relu): ReLU()
)
    --> Start regularising_EU_LG_UA
Try trim model: Copy model and delete nodes success
    --> Start module_EU_LG
[ 60.53%] ------------> Checking nodes...
TwoLayerNet(
  (layer_1): Linear(in_features=18, out_features=76, bias=True)
  (layer_out): Linear(in_features=76, out_features=1, bias=True)
  (relu): ReLU()
)
    --> Start regularising_EU_LG_UA
Try trim model: Copy model and delete nodes success
    --> Start module_EU_LG
[ 61.84%] ------------> Checking nodes...
TwoLayerNet(
  (layer_1): Linear(in_features=18, out_features=76, bias=True)
  (layer_out): Linear(in_features=76, out_features=1, bias=True)
  (relu): ReLU()
)
    --> Start regularising_EU_LG_UA
Try trim model: Copy model and delete nodes success
    --> Start module_EU_LG
[ 63.16%] ------------> Checking nodes...
TwoLayerNet(
  (layer_1): Linear(in_features=18, out_features=76, bias=True)
  (layer_out): Linear(in_features=76, out_features=1, bias=True)
  (relu): ReLU()
)
    --> Start regularising_EU_LG_UA
Try trim model: Copy model and delete nodes success
    --> Start module_EU_LG
[ 64.47%] ------------> Checking nodes...
TwoLayerNet(
  (layer_1): Linear(in_features=18, out_features=76, bias=True)
  (layer_out): Linear(in_features=76, out_features=1, bias=True)
  (relu): ReLU()
)
    --> Start regularising_EU_LG_UA
Try trim model: Copy model and delete nodes success
    --> Start module_EU_LG
[ 65.79%] ------------> Checking nodes...
TwoLayerNet(
  (layer_1): Linear(in_features=18, out_features=76, bias=True)
  (layer_out): Linear(in_features=76, out_features=1, bias=True)
  (relu): ReLU()
)
    --> Start regularising_EU_LG_UA
Try trim model: Copy model and delete nodes success
    --> Start module_EU_LG
[ 67.11%] ------------> Checking nodes...
TwoLayerNet(
  (layer_1): Linear(in_features=18, out_features=76, bias=True)
  (layer_out): Linear(in_features=76, out_features=1, bias=True)
  (relu): ReLU()
)
    --> Start regularising_EU_LG_UA
Try trim model: Copy model and delete nodes success
    --> Start module_EU_LG
[ 68.42%] ------------> Checking nodes...
TwoLayerNet(
  (layer_1): Linear(in_features=18, out_features=76, bias=True)
  (layer_out): Linear(in_features=76, out_features=1, bias=True)
  (relu): ReLU()
)
    --> Start regularising_EU_LG_UA
Try trim model: Copy model and delete nodes success
    --> Start module_EU_LG
[ 69.74%] ------------> Checking nodes...
TwoLayerNet(
  (layer_1): Linear(in_features=18, out_features=76, bias=True)
  (layer_out): Linear(in_features=76, out_features=1, bias=True)
  (relu): ReLU()
)
    --> Start regularising_EU_LG_UA
Try trim model: Copy model and delete nodes success
    --> Start module_EU_LG
[ 71.05%] ------------> Checking nodes...
TwoLayerNet(
  (layer_1): Linear(in_features=18, out_features=76, bias=True)
  (layer_out): Linear(in_features=76, out_features=1, bias=True)
  (relu): ReLU()
)
    --> Start regularising_EU_LG_UA
Try trim model: Copy model and delete nodes success
    --> Start module_EU_LG
[ 72.37%] ------------> Checking nodes...
TwoLayerNet(
  (layer_1): Linear(in_features=18, out_features=76, bias=True)
  (layer_out): Linear(in_features=76, out_features=1, bias=True)
  (relu): ReLU()
)
    --> Start regularising_EU_LG_UA
Try trim model: Copy model and delete nodes success
    --> Start module_EU_LG
[ 73.68%] ------------> Checking nodes...
TwoLayerNet(
  (layer_1): Linear(in_features=18, out_features=76, bias=True)
  (layer_out): Linear(in_features=76, out_features=1, bias=True)
  (relu): ReLU()
)
    --> Start regularising_EU_LG_UA
Try trim model: Copy model and delete nodes success
    --> Start module_EU_LG
[ 75.00%] ------------> Checking nodes...
TwoLayerNet(
  (layer_1): Linear(in_features=18, out_features=76, bias=True)
  (layer_out): Linear(in_features=76, out_features=1, bias=True)
  (relu): ReLU()
)
    --> Start regularising_EU_LG_UA
Try trim model: Copy model and delete nodes success
    --> Start module_EU_LG
[ 76.32%] ------------> Checking nodes...
TwoLayerNet(
  (layer_1): Linear(in_features=18, out_features=76, bias=True)
  (layer_out): Linear(in_features=76, out_features=1, bias=True)
  (relu): ReLU()
)
    --> Start regularising_EU_LG_UA
Try trim model: Copy model and delete nodes success
    --> Start module_EU_LG
[ 77.63%] ------------> Checking nodes...
TwoLayerNet(
  (layer_1): Linear(in_features=18, out_features=76, bias=True)
  (layer_out): Linear(in_features=76, out_features=1, bias=True)
  (relu): ReLU()
)
    --> Start regularising_EU_LG_UA
Try trim model: Copy model and delete nodes success
    --> Start module_EU_LG
[ 78.95%] ------------> Checking nodes...
TwoLayerNet(
  (layer_1): Linear(in_features=18, out_features=76, bias=True)
  (layer_out): Linear(in_features=76, out_features=1, bias=True)
  (relu): ReLU()
)
    --> Start regularising_EU_LG_UA
Try trim model: Copy model and delete nodes success
    --> Start module_EU_LG
[ 80.26%] ------------> Checking nodes...
TwoLayerNet(
  (layer_1): Linear(in_features=18, out_features=76, bias=True)
  (layer_out): Linear(in_features=76, out_features=1, bias=True)
  (relu): ReLU()
)
    --> Start regularising_EU_LG_UA
Try trim model: Copy model and delete nodes success
    --> Start module_EU_LG
[ 81.58%] ------------> Checking nodes...
TwoLayerNet(
  (layer_1): Linear(in_features=18, out_features=76, bias=True)
  (layer_out): Linear(in_features=76, out_features=1, bias=True)
  (relu): ReLU()
)
    --> Start regularising_EU_LG_UA
Try trim model: Copy model and delete nodes success
    --> Start module_EU_LG
[ 82.89%] ------------> Checking nodes...
TwoLayerNet(
  (layer_1): Linear(in_features=18, out_features=76, bias=True)
  (layer_out): Linear(in_features=76, out_features=1, bias=True)
  (relu): ReLU()
)
    --> Start regularising_EU_LG_UA
Try trim model: Copy model and delete nodes success
    --> Start module_EU_LG
[ 84.21%] ------------> Checking nodes...
TwoLayerNet(
  (layer_1): Linear(in_features=18, out_features=76, bias=True)
  (layer_out): Linear(in_features=76, out_features=1, bias=True)
  (relu): ReLU()
)
    --> Start regularising_EU_LG_UA
Try trim model: Copy model and delete nodes success
    --> Start module_EU_LG
[ 85.53%] ------------> Checking nodes...
TwoLayerNet(
  (layer_1): Linear(in_features=18, out_features=76, bias=True)
  (layer_out): Linear(in_features=76, out_features=1, bias=True)
  (relu): ReLU()
)
    --> Start regularising_EU_LG_UA
Try trim model: Copy model and delete nodes success
    --> Start module_EU_LG
[ 86.84%] ------------> Checking nodes...
TwoLayerNet(
  (layer_1): Linear(in_features=18, out_features=76, bias=True)
  (layer_out): Linear(in_features=76, out_features=1, bias=True)
  (relu): ReLU()
)
    --> Start regularising_EU_LG_UA
Try trim model: Copy model and delete nodes success
    --> Start module_EU_LG
[ 88.16%] ------------> Checking nodes...
TwoLayerNet(
  (layer_1): Linear(in_features=18, out_features=76, bias=True)
  (layer_out): Linear(in_features=76, out_features=1, bias=True)
  (relu): ReLU()
)
    --> Start regularising_EU_LG_UA
Try trim model: Copy model and delete nodes success
    --> Start module_EU_LG
[ 89.47%] ------------> Checking nodes...
TwoLayerNet(
  (layer_1): Linear(in_features=18, out_features=76, bias=True)
  (layer_out): Linear(in_features=76, out_features=1, bias=True)
  (relu): ReLU()
)
    --> Start regularising_EU_LG_UA
Try trim model: Copy model and delete nodes success
    --> Start module_EU_LG
[ 90.79%] ------------> Checking nodes...
TwoLayerNet(
  (layer_1): Linear(in_features=18, out_features=76, bias=True)
  (layer_out): Linear(in_features=76, out_features=1, bias=True)
  (relu): ReLU()
)
    --> Start regularising_EU_LG_UA
Try trim model: Copy model and delete nodes success
    --> Start module_EU_LG
[ 92.11%] ------------> Checking nodes...
TwoLayerNet(
  (layer_1): Linear(in_features=18, out_features=76, bias=True)
  (layer_out): Linear(in_features=76, out_features=1, bias=True)
  (relu): ReLU()
)
    --> Start regularising_EU_LG_UA
Try trim model: Copy model and delete nodes success
    --> Start module_EU_LG
[ 93.42%] ------------> Checking nodes...
TwoLayerNet(
  (layer_1): Linear(in_features=18, out_features=76, bias=True)
  (layer_out): Linear(in_features=76, out_features=1, bias=True)
  (relu): ReLU()
)
    --> Start regularising_EU_LG_UA
Try trim model: Copy model and delete nodes success
    --> Start module_EU_LG
[ 94.74%] ------------> Checking nodes...
TwoLayerNet(
  (layer_1): Linear(in_features=18, out_features=76, bias=True)
  (layer_out): Linear(in_features=76, out_features=1, bias=True)
  (relu): ReLU()
)
    --> Start regularising_EU_LG_UA
Try trim model: Copy model and delete nodes success
    --> Start module_EU_LG
[ 96.05%] ------------> Checking nodes...
TwoLayerNet(
  (layer_1): Linear(in_features=18, out_features=76, bias=True)
  (layer_out): Linear(in_features=76, out_features=1, bias=True)
  (relu): ReLU()
)
    --> Start regularising_EU_LG_UA
Try trim model: Copy model and delete nodes success
    --> Start module_EU_LG
[ 97.37%] ------------> Checking nodes...
TwoLayerNet(
  (layer_1): Linear(in_features=18, out_features=76, bias=True)
  (layer_out): Linear(in_features=76, out_features=1, bias=True)
  (relu): ReLU()
)
    --> Start regularising_EU_LG_UA
Try trim model: Copy model and delete nodes success
    --> Start module_EU_LG
[ 98.68%] ------------> Checking nodes...
TwoLayerNet(
  (layer_1): Linear(in_features=18, out_features=76, bias=True)
  (layer_out): Linear(in_features=76, out_features=1, bias=True)
  (relu): ReLU()
)
    --> Start regularising_EU_LG_UA
Try trim model: Copy model and delete nodes success
    --> Start module_EU_LG
model after reorg: TwoLayerNet(
  (layer_1): Linear(in_features=18, out_features=76, bias=True)
  (layer_out): Linear(in_features=76, out_features=1, bias=True)
  (relu): ReLU()
)
### New lts ###
Total obtaining n: 353
obtaining n over lr goal: 0
Total select n: 358
select n over lr goal: 5
//////////// Start module_EU_LG Epoch ///////////
Finish epoch. non acceptable module at max eps tensor([14574333.3792], dtype=torch.float64, grad_fn=<UnbindBackward0>)
////////// Start CRAM and REORG with unacceptable wt //////////
model after wt: TwoLayerNet(
  (layer_1): Linear(in_features=18, out_features=76, bias=True)
  (layer_out): Linear(in_features=76, out_features=1, bias=True)
  (relu): ReLU()
)
eps_square (last 10) before cram: tensor([[ 6.9074],
        [ 7.2064],
        [ 7.2828],
        [ 7.3420],
        [ 7.3804],
        [10.8709],
        [11.3433],
        [11.4646],
        [12.4356],
        [12.6703]], dtype=torch.float64, grad_fn=<SliceBackward0>)
cramming sample 353th |0.00% total of 5
cramming sample 354th |20.00% total of 5
cramming sample 355th |40.00% total of 5
cramming sample 356th |60.00% total of 5
cramming sample 357th |80.00% total of 5
model after cram: TwoLayerNet(
  (layer_1): Linear(in_features=18, out_features=91, bias=True)
  (layer_out): Linear(in_features=91, out_features=1, bias=True)
  (relu): ReLU()
)
eps_sqaure (last 10) after cram: tensor([[6.9074e+00],
        [7.2064e+00],
        [7.2828e+00],
        [7.3420e+00],
        [7.3804e+00],
        [1.3414e-24],
        [7.8414e-22],
        [1.3579e-24],
        [5.0766e-22],
        [8.2362e-22]], dtype=torch.float64, grad_fn=<SliceBackward0>)
Acceptable SLFN exist in 'acceptable/cram.pth'.
=================== reorganising ===================
[ 0.00%] ------------> Checking nodes...
TwoLayerNet(
  (layer_1): Linear(in_features=18, out_features=91, bias=True)
  (layer_out): Linear(in_features=91, out_features=1, bias=True)
  (relu): ReLU()
)
    --> Start regularising_EU_LG_UA
Try trim model: Copy model and delete nodes success
    --> Start module_EU_LG
[ 1.10%] ------------> Checking nodes...
TwoLayerNet(
  (layer_1): Linear(in_features=18, out_features=91, bias=True)
  (layer_out): Linear(in_features=91, out_features=1, bias=True)
  (relu): ReLU()
)
    --> Start regularising_EU_LG_UA
Try trim model: Copy model and delete nodes success
    --> Start module_EU_LG
[ 2.20%] ------------> Checking nodes...
TwoLayerNet(
  (layer_1): Linear(in_features=18, out_features=91, bias=True)
  (layer_out): Linear(in_features=91, out_features=1, bias=True)
  (relu): ReLU()
)
    --> Start regularising_EU_LG_UA
Try trim model: Copy model and delete nodes success
    --> Start module_EU_LG
[ 3.30%] ------------> Checking nodes...
TwoLayerNet(
  (layer_1): Linear(in_features=18, out_features=91, bias=True)
  (layer_out): Linear(in_features=91, out_features=1, bias=True)
  (relu): ReLU()
)
    --> Start regularising_EU_LG_UA
Try trim model: Copy model and delete nodes success
    --> Start module_EU_LG
[ 4.40%] ------------> Checking nodes...
TwoLayerNet(
  (layer_1): Linear(in_features=18, out_features=91, bias=True)
  (layer_out): Linear(in_features=91, out_features=1, bias=True)
  (relu): ReLU()
)
    --> Start regularising_EU_LG_UA
Try trim model: Copy model and delete nodes success
    --> Start module_EU_LG
[ 5.49%] ------------> Checking nodes...
TwoLayerNet(
  (layer_1): Linear(in_features=18, out_features=91, bias=True)
  (layer_out): Linear(in_features=91, out_features=1, bias=True)
  (relu): ReLU()
)
    --> Start regularising_EU_LG_UA
Try trim model: Copy model and delete nodes success
    --> Start module_EU_LG
[ 6.59%] ------------> Checking nodes...
TwoLayerNet(
  (layer_1): Linear(in_features=18, out_features=91, bias=True)
  (layer_out): Linear(in_features=91, out_features=1, bias=True)
  (relu): ReLU()
)
    --> Start regularising_EU_LG_UA
Try trim model: Copy model and delete nodes success
    --> Start module_EU_LG
[ 7.69%] ------------> Checking nodes...
TwoLayerNet(
  (layer_1): Linear(in_features=18, out_features=91, bias=True)
  (layer_out): Linear(in_features=91, out_features=1, bias=True)
  (relu): ReLU()
)
    --> Start regularising_EU_LG_UA
Try trim model: Copy model and delete nodes success
    --> Start module_EU_LG
[ 8.79%] ------------> Checking nodes...
TwoLayerNet(
  (layer_1): Linear(in_features=18, out_features=91, bias=True)
  (layer_out): Linear(in_features=91, out_features=1, bias=True)
  (relu): ReLU()
)
    --> Start regularising_EU_LG_UA
Try trim model: Copy model and delete nodes success
    --> Start module_EU_LG
[ 9.89%] ------------> Checking nodes...
TwoLayerNet(
  (layer_1): Linear(in_features=18, out_features=91, bias=True)
  (layer_out): Linear(in_features=91, out_features=1, bias=True)
  (relu): ReLU()
)
    --> Start regularising_EU_LG_UA
Try trim model: Copy model and delete nodes success
    --> Start module_EU_LG
[ 10.99%] ------------> Checking nodes...
TwoLayerNet(
  (layer_1): Linear(in_features=18, out_features=91, bias=True)
  (layer_out): Linear(in_features=91, out_features=1, bias=True)
  (relu): ReLU()
)
    --> Start regularising_EU_LG_UA
Try trim model: Copy model and delete nodes success
    --> Start module_EU_LG
[ 12.09%] ------------> Checking nodes...
TwoLayerNet(
  (layer_1): Linear(in_features=18, out_features=91, bias=True)
  (layer_out): Linear(in_features=91, out_features=1, bias=True)
  (relu): ReLU()
)
    --> Start regularising_EU_LG_UA
Try trim model: Copy model and delete nodes success
    --> Start module_EU_LG
[ 13.19%] ------------> Checking nodes...
TwoLayerNet(
  (layer_1): Linear(in_features=18, out_features=91, bias=True)
  (layer_out): Linear(in_features=91, out_features=1, bias=True)
  (relu): ReLU()
)
    --> Start regularising_EU_LG_UA
Try trim model: Copy model and delete nodes success
    --> Start module_EU_LG
[ 14.29%] ------------> Checking nodes...
TwoLayerNet(
  (layer_1): Linear(in_features=18, out_features=91, bias=True)
  (layer_out): Linear(in_features=91, out_features=1, bias=True)
  (relu): ReLU()
)
    --> Start regularising_EU_LG_UA
Try trim model: Copy model and delete nodes success
    --> Start module_EU_LG
[ 15.38%] ------------> Checking nodes...
TwoLayerNet(
  (layer_1): Linear(in_features=18, out_features=91, bias=True)
  (layer_out): Linear(in_features=91, out_features=1, bias=True)
  (relu): ReLU()
)
    --> Start regularising_EU_LG_UA
Try trim model: Copy model and delete nodes success
    --> Start module_EU_LG
[ 16.48%] ------------> Checking nodes...
TwoLayerNet(
  (layer_1): Linear(in_features=18, out_features=91, bias=True)
  (layer_out): Linear(in_features=91, out_features=1, bias=True)
  (relu): ReLU()
)
    --> Start regularising_EU_LG_UA
Try trim model: Copy model and delete nodes success
    --> Start module_EU_LG
[ 17.58%] ------------> Checking nodes...
TwoLayerNet(
  (layer_1): Linear(in_features=18, out_features=91, bias=True)
  (layer_out): Linear(in_features=91, out_features=1, bias=True)
  (relu): ReLU()
)
    --> Start regularising_EU_LG_UA
Try trim model: Copy model and delete nodes success
    --> Start module_EU_LG
[ 18.68%] ------------> Checking nodes...
TwoLayerNet(
  (layer_1): Linear(in_features=18, out_features=91, bias=True)
  (layer_out): Linear(in_features=91, out_features=1, bias=True)
  (relu): ReLU()
)
    --> Start regularising_EU_LG_UA
Try trim model: Copy model and delete nodes success
    --> Start module_EU_LG
[ 19.78%] ------------> Checking nodes...
TwoLayerNet(
  (layer_1): Linear(in_features=18, out_features=91, bias=True)
  (layer_out): Linear(in_features=91, out_features=1, bias=True)
  (relu): ReLU()
)
    --> Start regularising_EU_LG_UA
Try trim model: Copy model and delete nodes success
    --> Start module_EU_LG
[ 20.88%] ------------> Checking nodes...
TwoLayerNet(
  (layer_1): Linear(in_features=18, out_features=91, bias=True)
  (layer_out): Linear(in_features=91, out_features=1, bias=True)
  (relu): ReLU()
)
    --> Start regularising_EU_LG_UA
Try trim model: Copy model and delete nodes success
    --> Start module_EU_LG
[ 21.98%] ------------> Checking nodes...
TwoLayerNet(
  (layer_1): Linear(in_features=18, out_features=91, bias=True)
  (layer_out): Linear(in_features=91, out_features=1, bias=True)
  (relu): ReLU()
)
    --> Start regularising_EU_LG_UA
Try trim model: Copy model and delete nodes success
    --> Start module_EU_LG
[ 23.08%] ------------> Checking nodes...
TwoLayerNet(
  (layer_1): Linear(in_features=18, out_features=91, bias=True)
  (layer_out): Linear(in_features=91, out_features=1, bias=True)
  (relu): ReLU()
)
    --> Start regularising_EU_LG_UA
Try trim model: Copy model and delete nodes success
    --> Start module_EU_LG
[ 24.18%] ------------> Checking nodes...
TwoLayerNet(
  (layer_1): Linear(in_features=18, out_features=91, bias=True)
  (layer_out): Linear(in_features=91, out_features=1, bias=True)
  (relu): ReLU()
)
    --> Start regularising_EU_LG_UA
Try trim model: Copy model and delete nodes success
    --> Start module_EU_LG
[ 25.27%] ------------> Checking nodes...
TwoLayerNet(
  (layer_1): Linear(in_features=18, out_features=91, bias=True)
  (layer_out): Linear(in_features=91, out_features=1, bias=True)
  (relu): ReLU()
)
    --> Start regularising_EU_LG_UA
Try trim model: Copy model and delete nodes success
    --> Start module_EU_LG
[ 26.37%] ------------> Checking nodes...
TwoLayerNet(
  (layer_1): Linear(in_features=18, out_features=91, bias=True)
  (layer_out): Linear(in_features=91, out_features=1, bias=True)
  (relu): ReLU()
)
    --> Start regularising_EU_LG_UA
Try trim model: Copy model and delete nodes success
    --> Start module_EU_LG
[ 27.47%] ------------> Checking nodes...
TwoLayerNet(
  (layer_1): Linear(in_features=18, out_features=91, bias=True)
  (layer_out): Linear(in_features=91, out_features=1, bias=True)
  (relu): ReLU()
)
    --> Start regularising_EU_LG_UA
Try trim model: Copy model and delete nodes success
    --> Start module_EU_LG
[ 28.57%] ------------> Checking nodes...
TwoLayerNet(
  (layer_1): Linear(in_features=18, out_features=91, bias=True)
  (layer_out): Linear(in_features=91, out_features=1, bias=True)
  (relu): ReLU()
)
    --> Start regularising_EU_LG_UA
Try trim model: Copy model and delete nodes success
    --> Start module_EU_LG
[ 29.67%] ------------> Checking nodes...
TwoLayerNet(
  (layer_1): Linear(in_features=18, out_features=91, bias=True)
  (layer_out): Linear(in_features=91, out_features=1, bias=True)
  (relu): ReLU()
)
    --> Start regularising_EU_LG_UA
Try trim model: Copy model and delete nodes success
    --> Start module_EU_LG
[ 30.77%] ------------> Checking nodes...
TwoLayerNet(
  (layer_1): Linear(in_features=18, out_features=91, bias=True)
  (layer_out): Linear(in_features=91, out_features=1, bias=True)
  (relu): ReLU()
)
    --> Start regularising_EU_LG_UA
Try trim model: Copy model and delete nodes success
    --> Start module_EU_LG
[ 31.87%] ------------> Checking nodes...
TwoLayerNet(
  (layer_1): Linear(in_features=18, out_features=91, bias=True)
  (layer_out): Linear(in_features=91, out_features=1, bias=True)
  (relu): ReLU()
)
    --> Start regularising_EU_LG_UA
Try trim model: Copy model and delete nodes success
    --> Start module_EU_LG
[ 32.97%] ------------> Checking nodes...
TwoLayerNet(
  (layer_1): Linear(in_features=18, out_features=91, bias=True)
  (layer_out): Linear(in_features=91, out_features=1, bias=True)
  (relu): ReLU()
)
    --> Start regularising_EU_LG_UA
Try trim model: Copy model and delete nodes success
    --> Start module_EU_LG
[ 34.07%] ------------> Checking nodes...
TwoLayerNet(
  (layer_1): Linear(in_features=18, out_features=91, bias=True)
  (layer_out): Linear(in_features=91, out_features=1, bias=True)
  (relu): ReLU()
)
    --> Start regularising_EU_LG_UA
Try trim model: Copy model and delete nodes success
    --> Start module_EU_LG
[ 35.16%] ------------> Checking nodes...
TwoLayerNet(
  (layer_1): Linear(in_features=18, out_features=91, bias=True)
  (layer_out): Linear(in_features=91, out_features=1, bias=True)
  (relu): ReLU()
)
    --> Start regularising_EU_LG_UA
Try trim model: Copy model and delete nodes success
    --> Start module_EU_LG
[ 36.26%] ------------> Checking nodes...
TwoLayerNet(
  (layer_1): Linear(in_features=18, out_features=91, bias=True)
  (layer_out): Linear(in_features=91, out_features=1, bias=True)
  (relu): ReLU()
)
    --> Start regularising_EU_LG_UA
Try trim model: Copy model and delete nodes success
    --> Start module_EU_LG
[ 37.36%] ------------> Checking nodes...
TwoLayerNet(
  (layer_1): Linear(in_features=18, out_features=91, bias=True)
  (layer_out): Linear(in_features=91, out_features=1, bias=True)
  (relu): ReLU()
)
    --> Start regularising_EU_LG_UA
Try trim model: Copy model and delete nodes success
    --> Start module_EU_LG
[ 38.46%] ------------> Checking nodes...
TwoLayerNet(
  (layer_1): Linear(in_features=18, out_features=91, bias=True)
  (layer_out): Linear(in_features=91, out_features=1, bias=True)
  (relu): ReLU()
)
    --> Start regularising_EU_LG_UA
Try trim model: Copy model and delete nodes success
    --> Start module_EU_LG
[ 39.56%] ------------> Checking nodes...
TwoLayerNet(
  (layer_1): Linear(in_features=18, out_features=91, bias=True)
  (layer_out): Linear(in_features=91, out_features=1, bias=True)
  (relu): ReLU()
)
    --> Start regularising_EU_LG_UA
Try trim model: Copy model and delete nodes success
    --> Start module_EU_LG
[ 40.66%] ------------> Checking nodes...
TwoLayerNet(
  (layer_1): Linear(in_features=18, out_features=91, bias=True)
  (layer_out): Linear(in_features=91, out_features=1, bias=True)
  (relu): ReLU()
)
    --> Start regularising_EU_LG_UA
Try trim model: Copy model and delete nodes success
    --> Start module_EU_LG
[ 41.76%] ------------> Checking nodes...
TwoLayerNet(
  (layer_1): Linear(in_features=18, out_features=91, bias=True)
  (layer_out): Linear(in_features=91, out_features=1, bias=True)
  (relu): ReLU()
)
    --> Start regularising_EU_LG_UA
Try trim model: Copy model and delete nodes success
    --> Start module_EU_LG
[ 42.86%] ------------> Checking nodes...
TwoLayerNet(
  (layer_1): Linear(in_features=18, out_features=91, bias=True)
  (layer_out): Linear(in_features=91, out_features=1, bias=True)
  (relu): ReLU()
)
    --> Start regularising_EU_LG_UA
Try trim model: Copy model and delete nodes success
    --> Start module_EU_LG
[ 43.96%] ------------> Checking nodes...
TwoLayerNet(
  (layer_1): Linear(in_features=18, out_features=91, bias=True)
  (layer_out): Linear(in_features=91, out_features=1, bias=True)
  (relu): ReLU()
)
    --> Start regularising_EU_LG_UA
Try trim model: Copy model and delete nodes success
    --> Start module_EU_LG
[ 45.05%] ------------> Checking nodes...
TwoLayerNet(
  (layer_1): Linear(in_features=18, out_features=91, bias=True)
  (layer_out): Linear(in_features=91, out_features=1, bias=True)
  (relu): ReLU()
)
    --> Start regularising_EU_LG_UA
Try trim model: Copy model and delete nodes success
    --> Start module_EU_LG
[ 46.15%] ------------> Checking nodes...
TwoLayerNet(
  (layer_1): Linear(in_features=18, out_features=91, bias=True)
  (layer_out): Linear(in_features=91, out_features=1, bias=True)
  (relu): ReLU()
)
    --> Start regularising_EU_LG_UA
Try trim model: Copy model and delete nodes success
    --> Start module_EU_LG
[ 47.25%] ------------> Checking nodes...
TwoLayerNet(
  (layer_1): Linear(in_features=18, out_features=91, bias=True)
  (layer_out): Linear(in_features=91, out_features=1, bias=True)
  (relu): ReLU()
)
    --> Start regularising_EU_LG_UA
Try trim model: Copy model and delete nodes success
    --> Start module_EU_LG
[ 48.35%] ------------> Checking nodes...
TwoLayerNet(
  (layer_1): Linear(in_features=18, out_features=91, bias=True)
  (layer_out): Linear(in_features=91, out_features=1, bias=True)
  (relu): ReLU()
)
    --> Start regularising_EU_LG_UA
Try trim model: Copy model and delete nodes success
    --> Start module_EU_LG
[ 49.45%] ------------> Checking nodes...
TwoLayerNet(
  (layer_1): Linear(in_features=18, out_features=91, bias=True)
  (layer_out): Linear(in_features=91, out_features=1, bias=True)
  (relu): ReLU()
)
    --> Start regularising_EU_LG_UA
Try trim model: Copy model and delete nodes success
    --> Start module_EU_LG
[ 50.55%] ------------> Checking nodes...
TwoLayerNet(
  (layer_1): Linear(in_features=18, out_features=91, bias=True)
  (layer_out): Linear(in_features=91, out_features=1, bias=True)
  (relu): ReLU()
)
    --> Start regularising_EU_LG_UA
Try trim model: Copy model and delete nodes success
    --> Start module_EU_LG
[ 51.65%] ------------> Checking nodes...
TwoLayerNet(
  (layer_1): Linear(in_features=18, out_features=91, bias=True)
  (layer_out): Linear(in_features=91, out_features=1, bias=True)
  (relu): ReLU()
)
    --> Start regularising_EU_LG_UA
Try trim model: Copy model and delete nodes success
    --> Start module_EU_LG
[ 52.75%] ------------> Checking nodes...
TwoLayerNet(
  (layer_1): Linear(in_features=18, out_features=91, bias=True)
  (layer_out): Linear(in_features=91, out_features=1, bias=True)
  (relu): ReLU()
)
    --> Start regularising_EU_LG_UA
Try trim model: Copy model and delete nodes success
    --> Start module_EU_LG
[ 53.85%] ------------> Checking nodes...
TwoLayerNet(
  (layer_1): Linear(in_features=18, out_features=91, bias=True)
  (layer_out): Linear(in_features=91, out_features=1, bias=True)
  (relu): ReLU()
)
    --> Start regularising_EU_LG_UA
Try trim model: Copy model and delete nodes success
    --> Start module_EU_LG
[ 54.95%] ------------> Checking nodes...
TwoLayerNet(
  (layer_1): Linear(in_features=18, out_features=91, bias=True)
  (layer_out): Linear(in_features=91, out_features=1, bias=True)
  (relu): ReLU()
)
    --> Start regularising_EU_LG_UA
Try trim model: Copy model and delete nodes success
    --> Start module_EU_LG
[ 56.04%] ------------> Checking nodes...
TwoLayerNet(
  (layer_1): Linear(in_features=18, out_features=91, bias=True)
  (layer_out): Linear(in_features=91, out_features=1, bias=True)
  (relu): ReLU()
)
    --> Start regularising_EU_LG_UA
Try trim model: Copy model and delete nodes success
    --> Start module_EU_LG
[ 57.14%] ------------> Checking nodes...
TwoLayerNet(
  (layer_1): Linear(in_features=18, out_features=91, bias=True)
  (layer_out): Linear(in_features=91, out_features=1, bias=True)
  (relu): ReLU()
)
    --> Start regularising_EU_LG_UA
Try trim model: Copy model and delete nodes success
    --> Start module_EU_LG
[ 58.24%] ------------> Checking nodes...
TwoLayerNet(
  (layer_1): Linear(in_features=18, out_features=91, bias=True)
  (layer_out): Linear(in_features=91, out_features=1, bias=True)
  (relu): ReLU()
)
    --> Start regularising_EU_LG_UA
Try trim model: Copy model and delete nodes success
    --> Start module_EU_LG
[ 59.34%] ------------> Checking nodes...
TwoLayerNet(
  (layer_1): Linear(in_features=18, out_features=91, bias=True)
  (layer_out): Linear(in_features=91, out_features=1, bias=True)
  (relu): ReLU()
)
    --> Start regularising_EU_LG_UA
Try trim model: Copy model and delete nodes success
    --> Start module_EU_LG
[ 60.44%] ------------> Checking nodes...
TwoLayerNet(
  (layer_1): Linear(in_features=18, out_features=91, bias=True)
  (layer_out): Linear(in_features=91, out_features=1, bias=True)
  (relu): ReLU()
)
    --> Start regularising_EU_LG_UA
Try trim model: Copy model and delete nodes success
    --> Start module_EU_LG
[ 61.54%] ------------> Checking nodes...
TwoLayerNet(
  (layer_1): Linear(in_features=18, out_features=91, bias=True)
  (layer_out): Linear(in_features=91, out_features=1, bias=True)
  (relu): ReLU()
)
    --> Start regularising_EU_LG_UA
Try trim model: Copy model and delete nodes success
    --> Start module_EU_LG
[ 62.64%] ------------> Checking nodes...
TwoLayerNet(
  (layer_1): Linear(in_features=18, out_features=91, bias=True)
  (layer_out): Linear(in_features=91, out_features=1, bias=True)
  (relu): ReLU()
)
    --> Start regularising_EU_LG_UA
Try trim model: Copy model and delete nodes success
    --> Start module_EU_LG
[ 63.74%] ------------> Checking nodes...
TwoLayerNet(
  (layer_1): Linear(in_features=18, out_features=91, bias=True)
  (layer_out): Linear(in_features=91, out_features=1, bias=True)
  (relu): ReLU()
)
    --> Start regularising_EU_LG_UA
Try trim model: Copy model and delete nodes success
    --> Start module_EU_LG
[ 64.84%] ------------> Checking nodes...
TwoLayerNet(
  (layer_1): Linear(in_features=18, out_features=91, bias=True)
  (layer_out): Linear(in_features=91, out_features=1, bias=True)
  (relu): ReLU()
)
    --> Start regularising_EU_LG_UA
Try trim model: Copy model and delete nodes success
    --> Start module_EU_LG
[ 65.93%] ------------> Checking nodes...
TwoLayerNet(
  (layer_1): Linear(in_features=18, out_features=91, bias=True)
  (layer_out): Linear(in_features=91, out_features=1, bias=True)
  (relu): ReLU()
)
    --> Start regularising_EU_LG_UA
Try trim model: Copy model and delete nodes success
    --> Start module_EU_LG
[ 67.03%] ------------> Checking nodes...
TwoLayerNet(
  (layer_1): Linear(in_features=18, out_features=91, bias=True)
  (layer_out): Linear(in_features=91, out_features=1, bias=True)
  (relu): ReLU()
)
    --> Start regularising_EU_LG_UA
Try trim model: Copy model and delete nodes success
    --> Start module_EU_LG
[ 68.13%] ------------> Checking nodes...
TwoLayerNet(
  (layer_1): Linear(in_features=18, out_features=91, bias=True)
  (layer_out): Linear(in_features=91, out_features=1, bias=True)
  (relu): ReLU()
)
    --> Start regularising_EU_LG_UA
Try trim model: Copy model and delete nodes success
    --> Start module_EU_LG
[ 69.23%] ------------> Checking nodes...
TwoLayerNet(
  (layer_1): Linear(in_features=18, out_features=91, bias=True)
  (layer_out): Linear(in_features=91, out_features=1, bias=True)
  (relu): ReLU()
)
    --> Start regularising_EU_LG_UA
Try trim model: Copy model and delete nodes success
    --> Start module_EU_LG
[ 70.33%] ------------> Checking nodes...
TwoLayerNet(
  (layer_1): Linear(in_features=18, out_features=91, bias=True)
  (layer_out): Linear(in_features=91, out_features=1, bias=True)
  (relu): ReLU()
)
    --> Start regularising_EU_LG_UA
Try trim model: Copy model and delete nodes success
    --> Start module_EU_LG
[ 71.43%] ------------> Checking nodes...
TwoLayerNet(
  (layer_1): Linear(in_features=18, out_features=91, bias=True)
  (layer_out): Linear(in_features=91, out_features=1, bias=True)
  (relu): ReLU()
)
    --> Start regularising_EU_LG_UA
Try trim model: Copy model and delete nodes success
    --> Start module_EU_LG
[ 72.53%] ------------> Checking nodes...
TwoLayerNet(
  (layer_1): Linear(in_features=18, out_features=91, bias=True)
  (layer_out): Linear(in_features=91, out_features=1, bias=True)
  (relu): ReLU()
)
    --> Start regularising_EU_LG_UA
Try trim model: Copy model and delete nodes success
    --> Start module_EU_LG
[ 73.63%] ------------> Checking nodes...
TwoLayerNet(
  (layer_1): Linear(in_features=18, out_features=91, bias=True)
  (layer_out): Linear(in_features=91, out_features=1, bias=True)
  (relu): ReLU()
)
    --> Start regularising_EU_LG_UA
Try trim model: Copy model and delete nodes success
    --> Start module_EU_LG
[ 74.73%] ------------> Checking nodes...
TwoLayerNet(
  (layer_1): Linear(in_features=18, out_features=91, bias=True)
  (layer_out): Linear(in_features=91, out_features=1, bias=True)
  (relu): ReLU()
)
    --> Start regularising_EU_LG_UA
Try trim model: Copy model and delete nodes success
    --> Start module_EU_LG
[ 75.82%] ------------> Checking nodes...
TwoLayerNet(
  (layer_1): Linear(in_features=18, out_features=91, bias=True)
  (layer_out): Linear(in_features=91, out_features=1, bias=True)
  (relu): ReLU()
)
    --> Start regularising_EU_LG_UA
Try trim model: Copy model and delete nodes success
    --> Start module_EU_LG
[ 76.92%] ------------> Checking nodes...
TwoLayerNet(
  (layer_1): Linear(in_features=18, out_features=91, bias=True)
  (layer_out): Linear(in_features=91, out_features=1, bias=True)
  (relu): ReLU()
)
    --> Start regularising_EU_LG_UA
Try trim model: Copy model and delete nodes success
    --> Start module_EU_LG
[ 78.02%] ------------> Checking nodes...
TwoLayerNet(
  (layer_1): Linear(in_features=18, out_features=91, bias=True)
  (layer_out): Linear(in_features=91, out_features=1, bias=True)
  (relu): ReLU()
)
    --> Start regularising_EU_LG_UA
Try trim model: Copy model and delete nodes success
    --> Start module_EU_LG
[ 79.12%] ------------> Checking nodes...
TwoLayerNet(
  (layer_1): Linear(in_features=18, out_features=91, bias=True)
  (layer_out): Linear(in_features=91, out_features=1, bias=True)
  (relu): ReLU()
)
    --> Start regularising_EU_LG_UA
Try trim model: Copy model and delete nodes success
    --> Start module_EU_LG
[ 80.22%] ------------> Checking nodes...
TwoLayerNet(
  (layer_1): Linear(in_features=18, out_features=91, bias=True)
  (layer_out): Linear(in_features=91, out_features=1, bias=True)
  (relu): ReLU()
)
    --> Start regularising_EU_LG_UA
Try trim model: Copy model and delete nodes success
    --> Start module_EU_LG
[ 81.32%] ------------> Checking nodes...
TwoLayerNet(
  (layer_1): Linear(in_features=18, out_features=91, bias=True)
  (layer_out): Linear(in_features=91, out_features=1, bias=True)
  (relu): ReLU()
)
    --> Start regularising_EU_LG_UA
Try trim model: Copy model and delete nodes success
    --> Start module_EU_LG
[ 82.42%] ------------> Checking nodes...
TwoLayerNet(
  (layer_1): Linear(in_features=18, out_features=91, bias=True)
  (layer_out): Linear(in_features=91, out_features=1, bias=True)
  (relu): ReLU()
)
    --> Start regularising_EU_LG_UA
Try trim model: Copy model and delete nodes success
    --> Start module_EU_LG
[ 83.52%] ------------> Checking nodes...
TwoLayerNet(
  (layer_1): Linear(in_features=18, out_features=91, bias=True)
  (layer_out): Linear(in_features=91, out_features=1, bias=True)
  (relu): ReLU()
)
    --> Start regularising_EU_LG_UA
Try trim model: Copy model and delete nodes success
    --> Start module_EU_LG
[ 84.62%] ------------> Checking nodes...
TwoLayerNet(
  (layer_1): Linear(in_features=18, out_features=91, bias=True)
  (layer_out): Linear(in_features=91, out_features=1, bias=True)
  (relu): ReLU()
)
    --> Start regularising_EU_LG_UA
Try trim model: Copy model and delete nodes success
    --> Start module_EU_LG
[ 85.71%] ------------> Checking nodes...
TwoLayerNet(
  (layer_1): Linear(in_features=18, out_features=91, bias=True)
  (layer_out): Linear(in_features=91, out_features=1, bias=True)
  (relu): ReLU()
)
    --> Start regularising_EU_LG_UA
Try trim model: Copy model and delete nodes success
    --> Start module_EU_LG
[ 86.81%] ------------> Checking nodes...
TwoLayerNet(
  (layer_1): Linear(in_features=18, out_features=91, bias=True)
  (layer_out): Linear(in_features=91, out_features=1, bias=True)
  (relu): ReLU()
)
    --> Start regularising_EU_LG_UA
Try trim model: Copy model and delete nodes success
    --> Start module_EU_LG
[ 87.91%] ------------> Checking nodes...
TwoLayerNet(
  (layer_1): Linear(in_features=18, out_features=91, bias=True)
  (layer_out): Linear(in_features=91, out_features=1, bias=True)
  (relu): ReLU()
)
    --> Start regularising_EU_LG_UA
Try trim model: Copy model and delete nodes success
    --> Start module_EU_LG
[ 89.01%] ------------> Checking nodes...
TwoLayerNet(
  (layer_1): Linear(in_features=18, out_features=91, bias=True)
  (layer_out): Linear(in_features=91, out_features=1, bias=True)
  (relu): ReLU()
)
    --> Start regularising_EU_LG_UA
Try trim model: Copy model and delete nodes success
    --> Start module_EU_LG
[ 90.11%] ------------> Checking nodes...
TwoLayerNet(
  (layer_1): Linear(in_features=18, out_features=91, bias=True)
  (layer_out): Linear(in_features=91, out_features=1, bias=True)
  (relu): ReLU()
)
    --> Start regularising_EU_LG_UA
Try trim model: Copy model and delete nodes success
    --> Start module_EU_LG
[ 91.21%] ------------> Checking nodes...
TwoLayerNet(
  (layer_1): Linear(in_features=18, out_features=91, bias=True)
  (layer_out): Linear(in_features=91, out_features=1, bias=True)
  (relu): ReLU()
)
    --> Start regularising_EU_LG_UA
Try trim model: Copy model and delete nodes success
    --> Start module_EU_LG
[ 92.31%] ------------> Checking nodes...
TwoLayerNet(
  (layer_1): Linear(in_features=18, out_features=91, bias=True)
  (layer_out): Linear(in_features=91, out_features=1, bias=True)
  (relu): ReLU()
)
    --> Start regularising_EU_LG_UA
Try trim model: Copy model and delete nodes success
    --> Start module_EU_LG
[ 93.41%] ------------> Checking nodes...
TwoLayerNet(
  (layer_1): Linear(in_features=18, out_features=91, bias=True)
  (layer_out): Linear(in_features=91, out_features=1, bias=True)
  (relu): ReLU()
)
    --> Start regularising_EU_LG_UA
Try trim model: Copy model and delete nodes success
    --> Start module_EU_LG
[ 94.51%] ------------> Checking nodes...
TwoLayerNet(
  (layer_1): Linear(in_features=18, out_features=91, bias=True)
  (layer_out): Linear(in_features=91, out_features=1, bias=True)
  (relu): ReLU()
)
    --> Start regularising_EU_LG_UA
Try trim model: Copy model and delete nodes success
    --> Start module_EU_LG
[ 95.60%] ------------> Checking nodes...
TwoLayerNet(
  (layer_1): Linear(in_features=18, out_features=91, bias=True)
  (layer_out): Linear(in_features=91, out_features=1, bias=True)
  (relu): ReLU()
)
    --> Start regularising_EU_LG_UA
Try trim model: Copy model and delete nodes success
    --> Start module_EU_LG
[ 96.70%] ------------> Checking nodes...
TwoLayerNet(
  (layer_1): Linear(in_features=18, out_features=91, bias=True)
  (layer_out): Linear(in_features=91, out_features=1, bias=True)
  (relu): ReLU()
)
    --> Start regularising_EU_LG_UA
Try trim model: Copy model and delete nodes success
    --> Start module_EU_LG
[ 97.80%] ------------> Checking nodes...
TwoLayerNet(
  (layer_1): Linear(in_features=18, out_features=91, bias=True)
  (layer_out): Linear(in_features=91, out_features=1, bias=True)
  (relu): ReLU()
)
    --> Start regularising_EU_LG_UA
Try trim model: Copy model and delete nodes success
    --> Start module_EU_LG
[ 98.90%] ------------> Checking nodes...
TwoLayerNet(
  (layer_1): Linear(in_features=18, out_features=91, bias=True)
  (layer_out): Linear(in_features=91, out_features=1, bias=True)
  (relu): ReLU()
)
    --> Start regularising_EU_LG_UA
Try trim model: Copy model and delete nodes success
    --> Start module_EU_LG
model after reorg: TwoLayerNet(
  (layer_1): Linear(in_features=18, out_features=91, bias=True)
  (layer_out): Linear(in_features=91, out_features=1, bias=True)
  (relu): ReLU()
)
### New lts ###
Total obtaining n: 358
obtaining n over lr goal: 0
Total select n: 363
select n over lr goal: 5
//////////// Start module_EU_LG Epoch ///////////
Lr too small. non acceptable module at max eps tensor([1.8290e+08], dtype=torch.float64, grad_fn=<UnbindBackward0>)
////////// Start CRAM and REORG with unacceptable wt //////////
model after wt: TwoLayerNet(
  (layer_1): Linear(in_features=18, out_features=91, bias=True)
  (layer_out): Linear(in_features=91, out_features=1, bias=True)
  (relu): ReLU()
)
eps_square (last 10) before cram: tensor([[ 6.9074],
        [ 7.2064],
        [ 7.2828],
        [ 7.3420],
        [ 7.3804],
        [12.9719],
        [13.5932],
        [13.8395],
        [13.9810],
        [14.2186]], dtype=torch.float64, grad_fn=<SliceBackward0>)
cramming sample 358th |0.00% total of 5
cramming sample 359th |20.00% total of 5
cramming sample 360th |40.00% total of 5
cramming sample 361th |60.00% total of 5
cramming sample 362th |80.00% total of 5
model after cram: TwoLayerNet(
  (layer_1): Linear(in_features=18, out_features=106, bias=True)
  (layer_out): Linear(in_features=106, out_features=1, bias=True)
  (relu): ReLU()
)
eps_sqaure (last 10) after cram: tensor([[6.9074e+00],
        [7.2064e+00],
        [7.2828e+00],
        [7.3420e+00],
        [7.3804e+00],
        [1.1778e-23],
        [8.6959e-21],
        [6.7630e-24],
        [5.2836e-23],
        [2.8022e-23]], dtype=torch.float64, grad_fn=<SliceBackward0>)
Acceptable SLFN exist in 'acceptable/cram.pth'.
=================== reorganising ===================
[ 0.00%] ------------> Checking nodes...
TwoLayerNet(
  (layer_1): Linear(in_features=18, out_features=106, bias=True)
  (layer_out): Linear(in_features=106, out_features=1, bias=True)
  (relu): ReLU()
)
    --> Start regularising_EU_LG_UA
Try trim model: Copy model and delete nodes success
    --> Start module_EU_LG
[ 0.94%] ------------> Checking nodes...
TwoLayerNet(
  (layer_1): Linear(in_features=18, out_features=106, bias=True)
  (layer_out): Linear(in_features=106, out_features=1, bias=True)
  (relu): ReLU()
)
    --> Start regularising_EU_LG_UA
Try trim model: Copy model and delete nodes success
    --> Start module_EU_LG
[ 1.89%] ------------> Checking nodes...
TwoLayerNet(
  (layer_1): Linear(in_features=18, out_features=106, bias=True)
  (layer_out): Linear(in_features=106, out_features=1, bias=True)
  (relu): ReLU()
)
    --> Start regularising_EU_LG_UA
Try trim model: Copy model and delete nodes success
    --> Start module_EU_LG
[ 2.83%] ------------> Checking nodes...
TwoLayerNet(
  (layer_1): Linear(in_features=18, out_features=106, bias=True)
  (layer_out): Linear(in_features=106, out_features=1, bias=True)
  (relu): ReLU()
)
    --> Start regularising_EU_LG_UA
Try trim model: Copy model and delete nodes success
    --> Start module_EU_LG
[ 3.77%] ------------> Checking nodes...
TwoLayerNet(
  (layer_1): Linear(in_features=18, out_features=106, bias=True)
  (layer_out): Linear(in_features=106, out_features=1, bias=True)
  (relu): ReLU()
)
    --> Start regularising_EU_LG_UA
Try trim model: Copy model and delete nodes success
    --> Start module_EU_LG
[ 4.72%] ------------> Checking nodes...
TwoLayerNet(
  (layer_1): Linear(in_features=18, out_features=106, bias=True)
  (layer_out): Linear(in_features=106, out_features=1, bias=True)
  (relu): ReLU()
)
    --> Start regularising_EU_LG_UA
Try trim model: Copy model and delete nodes success
    --> Start module_EU_LG
[ 5.66%] ------------> Checking nodes...
TwoLayerNet(
  (layer_1): Linear(in_features=18, out_features=106, bias=True)
  (layer_out): Linear(in_features=106, out_features=1, bias=True)
  (relu): ReLU()
)
    --> Start regularising_EU_LG_UA
Try trim model: Copy model and delete nodes success
    --> Start module_EU_LG
[ 6.60%] ------------> Checking nodes...
TwoLayerNet(
  (layer_1): Linear(in_features=18, out_features=106, bias=True)
  (layer_out): Linear(in_features=106, out_features=1, bias=True)
  (relu): ReLU()
)
    --> Start regularising_EU_LG_UA
Try trim model: Copy model and delete nodes success
    --> Start module_EU_LG
[ 7.55%] ------------> Checking nodes...
TwoLayerNet(
  (layer_1): Linear(in_features=18, out_features=106, bias=True)
  (layer_out): Linear(in_features=106, out_features=1, bias=True)
  (relu): ReLU()
)
    --> Start regularising_EU_LG_UA
Try trim model: Copy model and delete nodes success
    --> Start module_EU_LG
[ 8.49%] ------------> Checking nodes...
TwoLayerNet(
  (layer_1): Linear(in_features=18, out_features=106, bias=True)
  (layer_out): Linear(in_features=106, out_features=1, bias=True)
  (relu): ReLU()
)
    --> Start regularising_EU_LG_UA
Try trim model: Copy model and delete nodes success
    --> Start module_EU_LG
[ 9.43%] ------------> Checking nodes...
TwoLayerNet(
  (layer_1): Linear(in_features=18, out_features=106, bias=True)
  (layer_out): Linear(in_features=106, out_features=1, bias=True)
  (relu): ReLU()
)
    --> Start regularising_EU_LG_UA
Try trim model: Copy model and delete nodes success
    --> Start module_EU_LG
[ 10.38%] ------------> Checking nodes...
TwoLayerNet(
  (layer_1): Linear(in_features=18, out_features=106, bias=True)
  (layer_out): Linear(in_features=106, out_features=1, bias=True)
  (relu): ReLU()
)
    --> Start regularising_EU_LG_UA
Try trim model: Copy model and delete nodes success
    --> Start module_EU_LG
[ 11.32%] ------------> Checking nodes...
TwoLayerNet(
  (layer_1): Linear(in_features=18, out_features=106, bias=True)
  (layer_out): Linear(in_features=106, out_features=1, bias=True)
  (relu): ReLU()
)
    --> Start regularising_EU_LG_UA
Try trim model: Copy model and delete nodes success
    --> Start module_EU_LG
[ 12.26%] ------------> Checking nodes...
TwoLayerNet(
  (layer_1): Linear(in_features=18, out_features=106, bias=True)
  (layer_out): Linear(in_features=106, out_features=1, bias=True)
  (relu): ReLU()
)
    --> Start regularising_EU_LG_UA
Try trim model: Copy model and delete nodes success
    --> Start module_EU_LG
[ 13.21%] ------------> Checking nodes...
TwoLayerNet(
  (layer_1): Linear(in_features=18, out_features=106, bias=True)
  (layer_out): Linear(in_features=106, out_features=1, bias=True)
  (relu): ReLU()
)
    --> Start regularising_EU_LG_UA
Try trim model: Copy model and delete nodes success
    --> Start module_EU_LG
[ 14.15%] ------------> Checking nodes...
TwoLayerNet(
  (layer_1): Linear(in_features=18, out_features=106, bias=True)
  (layer_out): Linear(in_features=106, out_features=1, bias=True)
  (relu): ReLU()
)
    --> Start regularising_EU_LG_UA
Try trim model: Copy model and delete nodes success
    --> Start module_EU_LG
[ 15.09%] ------------> Checking nodes...
TwoLayerNet(
  (layer_1): Linear(in_features=18, out_features=106, bias=True)
  (layer_out): Linear(in_features=106, out_features=1, bias=True)
  (relu): ReLU()
)
    --> Start regularising_EU_LG_UA
Try trim model: Copy model and delete nodes success
    --> Start module_EU_LG
[ 16.04%] ------------> Checking nodes...
TwoLayerNet(
  (layer_1): Linear(in_features=18, out_features=106, bias=True)
  (layer_out): Linear(in_features=106, out_features=1, bias=True)
  (relu): ReLU()
)
    --> Start regularising_EU_LG_UA
Try trim model: Copy model and delete nodes success
    --> Start module_EU_LG
[ 16.98%] ------------> Checking nodes...
TwoLayerNet(
  (layer_1): Linear(in_features=18, out_features=106, bias=True)
  (layer_out): Linear(in_features=106, out_features=1, bias=True)
  (relu): ReLU()
)
    --> Start regularising_EU_LG_UA
Try trim model: Copy model and delete nodes success
    --> Start module_EU_LG
[ 17.92%] ------------> Checking nodes...
TwoLayerNet(
  (layer_1): Linear(in_features=18, out_features=106, bias=True)
  (layer_out): Linear(in_features=106, out_features=1, bias=True)
  (relu): ReLU()
)
    --> Start regularising_EU_LG_UA
Try trim model: Copy model and delete nodes success
    --> Start module_EU_LG
[ 18.87%] ------------> Checking nodes...
TwoLayerNet(
  (layer_1): Linear(in_features=18, out_features=106, bias=True)
  (layer_out): Linear(in_features=106, out_features=1, bias=True)
  (relu): ReLU()
)
    --> Start regularising_EU_LG_UA
Try trim model: Copy model and delete nodes success
    --> Start module_EU_LG
[ 19.81%] ------------> Checking nodes...
TwoLayerNet(
  (layer_1): Linear(in_features=18, out_features=106, bias=True)
  (layer_out): Linear(in_features=106, out_features=1, bias=True)
  (relu): ReLU()
)
    --> Start regularising_EU_LG_UA
Try trim model: Copy model and delete nodes success
    --> Start module_EU_LG
[ 20.75%] ------------> Checking nodes...
TwoLayerNet(
  (layer_1): Linear(in_features=18, out_features=106, bias=True)
  (layer_out): Linear(in_features=106, out_features=1, bias=True)
  (relu): ReLU()
)
    --> Start regularising_EU_LG_UA
Try trim model: Copy model and delete nodes success
    --> Start module_EU_LG
[ 21.70%] ------------> Checking nodes...
TwoLayerNet(
  (layer_1): Linear(in_features=18, out_features=106, bias=True)
  (layer_out): Linear(in_features=106, out_features=1, bias=True)
  (relu): ReLU()
)
    --> Start regularising_EU_LG_UA
Try trim model: Copy model and delete nodes success
    --> Start module_EU_LG
[ 22.64%] ------------> Checking nodes...
TwoLayerNet(
  (layer_1): Linear(in_features=18, out_features=106, bias=True)
  (layer_out): Linear(in_features=106, out_features=1, bias=True)
  (relu): ReLU()
)
    --> Start regularising_EU_LG_UA
Try trim model: Copy model and delete nodes success
    --> Start module_EU_LG
[ 23.58%] ------------> Checking nodes...
TwoLayerNet(
  (layer_1): Linear(in_features=18, out_features=106, bias=True)
  (layer_out): Linear(in_features=106, out_features=1, bias=True)
  (relu): ReLU()
)
    --> Start regularising_EU_LG_UA
Try trim model: Copy model and delete nodes success
    --> Start module_EU_LG
[ 24.53%] ------------> Checking nodes...
TwoLayerNet(
  (layer_1): Linear(in_features=18, out_features=106, bias=True)
  (layer_out): Linear(in_features=106, out_features=1, bias=True)
  (relu): ReLU()
)
    --> Start regularising_EU_LG_UA
Try trim model: Copy model and delete nodes success
    --> Start module_EU_LG
[ 25.47%] ------------> Checking nodes...
TwoLayerNet(
  (layer_1): Linear(in_features=18, out_features=106, bias=True)
  (layer_out): Linear(in_features=106, out_features=1, bias=True)
  (relu): ReLU()
)
    --> Start regularising_EU_LG_UA
Try trim model: Copy model and delete nodes success
    --> Start module_EU_LG
[ 26.42%] ------------> Checking nodes...
TwoLayerNet(
  (layer_1): Linear(in_features=18, out_features=106, bias=True)
  (layer_out): Linear(in_features=106, out_features=1, bias=True)
  (relu): ReLU()
)
    --> Start regularising_EU_LG_UA
Try trim model: Copy model and delete nodes success
    --> Start module_EU_LG
[ 27.36%] ------------> Checking nodes...
TwoLayerNet(
  (layer_1): Linear(in_features=18, out_features=106, bias=True)
  (layer_out): Linear(in_features=106, out_features=1, bias=True)
  (relu): ReLU()
)
    --> Start regularising_EU_LG_UA
Try trim model: Copy model and delete nodes success
    --> Start module_EU_LG
[ 28.30%] ------------> Checking nodes...
TwoLayerNet(
  (layer_1): Linear(in_features=18, out_features=106, bias=True)
  (layer_out): Linear(in_features=106, out_features=1, bias=True)
  (relu): ReLU()
)
    --> Start regularising_EU_LG_UA
Try trim model: Copy model and delete nodes success
    --> Start module_EU_LG
[ 29.25%] ------------> Checking nodes...
TwoLayerNet(
  (layer_1): Linear(in_features=18, out_features=106, bias=True)
  (layer_out): Linear(in_features=106, out_features=1, bias=True)
  (relu): ReLU()
)
    --> Start regularising_EU_LG_UA
Try trim model: Copy model and delete nodes success
    --> Start module_EU_LG
[ 30.19%] ------------> Checking nodes...
TwoLayerNet(
  (layer_1): Linear(in_features=18, out_features=106, bias=True)
  (layer_out): Linear(in_features=106, out_features=1, bias=True)
  (relu): ReLU()
)
    --> Start regularising_EU_LG_UA
Try trim model: Copy model and delete nodes success
    --> Start module_EU_LG
[ 31.13%] ------------> Checking nodes...
TwoLayerNet(
  (layer_1): Linear(in_features=18, out_features=106, bias=True)
  (layer_out): Linear(in_features=106, out_features=1, bias=True)
  (relu): ReLU()
)
    --> Start regularising_EU_LG_UA
Try trim model: Copy model and delete nodes success
    --> Start module_EU_LG
[ 32.08%] ------------> Checking nodes...
TwoLayerNet(
  (layer_1): Linear(in_features=18, out_features=106, bias=True)
  (layer_out): Linear(in_features=106, out_features=1, bias=True)
  (relu): ReLU()
)
    --> Start regularising_EU_LG_UA
Try trim model: Copy model and delete nodes success
    --> Start module_EU_LG
[ 33.02%] ------------> Checking nodes...
TwoLayerNet(
  (layer_1): Linear(in_features=18, out_features=106, bias=True)
  (layer_out): Linear(in_features=106, out_features=1, bias=True)
  (relu): ReLU()
)
    --> Start regularising_EU_LG_UA
Try trim model: Copy model and delete nodes success
    --> Start module_EU_LG
[ 33.96%] ------------> Checking nodes...
TwoLayerNet(
  (layer_1): Linear(in_features=18, out_features=106, bias=True)
  (layer_out): Linear(in_features=106, out_features=1, bias=True)
  (relu): ReLU()
)
    --> Start regularising_EU_LG_UA
Try trim model: Copy model and delete nodes success
    --> Start module_EU_LG
[ 34.91%] ------------> Checking nodes...
TwoLayerNet(
  (layer_1): Linear(in_features=18, out_features=106, bias=True)
  (layer_out): Linear(in_features=106, out_features=1, bias=True)
  (relu): ReLU()
)
    --> Start regularising_EU_LG_UA
Try trim model: Copy model and delete nodes success
    --> Start module_EU_LG
[ 35.85%] ------------> Checking nodes...
TwoLayerNet(
  (layer_1): Linear(in_features=18, out_features=106, bias=True)
  (layer_out): Linear(in_features=106, out_features=1, bias=True)
  (relu): ReLU()
)
    --> Start regularising_EU_LG_UA
Try trim model: Copy model and delete nodes success
    --> Start module_EU_LG
[ 36.79%] ------------> Checking nodes...
TwoLayerNet(
  (layer_1): Linear(in_features=18, out_features=106, bias=True)
  (layer_out): Linear(in_features=106, out_features=1, bias=True)
  (relu): ReLU()
)
    --> Start regularising_EU_LG_UA
Try trim model: Copy model and delete nodes success
    --> Start module_EU_LG
[ 37.74%] ------------> Checking nodes...
TwoLayerNet(
  (layer_1): Linear(in_features=18, out_features=106, bias=True)
  (layer_out): Linear(in_features=106, out_features=1, bias=True)
  (relu): ReLU()
)
    --> Start regularising_EU_LG_UA
Try trim model: Copy model and delete nodes success
    --> Start module_EU_LG
[ 38.68%] ------------> Checking nodes...
TwoLayerNet(
  (layer_1): Linear(in_features=18, out_features=106, bias=True)
  (layer_out): Linear(in_features=106, out_features=1, bias=True)
  (relu): ReLU()
)
    --> Start regularising_EU_LG_UA
Try trim model: Copy model and delete nodes success
    --> Start module_EU_LG
[ 39.62%] ------------> Checking nodes...
TwoLayerNet(
  (layer_1): Linear(in_features=18, out_features=106, bias=True)
  (layer_out): Linear(in_features=106, out_features=1, bias=True)
  (relu): ReLU()
)
    --> Start regularising_EU_LG_UA
Try trim model: Copy model and delete nodes success
    --> Start module_EU_LG
[ 40.57%] ------------> Checking nodes...
TwoLayerNet(
  (layer_1): Linear(in_features=18, out_features=106, bias=True)
  (layer_out): Linear(in_features=106, out_features=1, bias=True)
  (relu): ReLU()
)
    --> Start regularising_EU_LG_UA
Try trim model: Copy model and delete nodes success
    --> Start module_EU_LG
[ 41.51%] ------------> Checking nodes...
TwoLayerNet(
  (layer_1): Linear(in_features=18, out_features=106, bias=True)
  (layer_out): Linear(in_features=106, out_features=1, bias=True)
  (relu): ReLU()
)
    --> Start regularising_EU_LG_UA
Try trim model: Copy model and delete nodes success
    --> Start module_EU_LG
[ 42.45%] ------------> Checking nodes...
TwoLayerNet(
  (layer_1): Linear(in_features=18, out_features=106, bias=True)
  (layer_out): Linear(in_features=106, out_features=1, bias=True)
  (relu): ReLU()
)
    --> Start regularising_EU_LG_UA
Try trim model: Copy model and delete nodes success
    --> Start module_EU_LG
[ 43.40%] ------------> Checking nodes...
TwoLayerNet(
  (layer_1): Linear(in_features=18, out_features=106, bias=True)
  (layer_out): Linear(in_features=106, out_features=1, bias=True)
  (relu): ReLU()
)
    --> Start regularising_EU_LG_UA
Try trim model: Copy model and delete nodes success
    --> Start module_EU_LG
[ 44.34%] ------------> Checking nodes...
TwoLayerNet(
  (layer_1): Linear(in_features=18, out_features=106, bias=True)
  (layer_out): Linear(in_features=106, out_features=1, bias=True)
  (relu): ReLU()
)
    --> Start regularising_EU_LG_UA
Try trim model: Copy model and delete nodes success
    --> Start module_EU_LG
[ 45.28%] ------------> Checking nodes...
TwoLayerNet(
  (layer_1): Linear(in_features=18, out_features=106, bias=True)
  (layer_out): Linear(in_features=106, out_features=1, bias=True)
  (relu): ReLU()
)
    --> Start regularising_EU_LG_UA
Try trim model: Copy model and delete nodes success
    --> Start module_EU_LG
[ 46.23%] ------------> Checking nodes...
TwoLayerNet(
  (layer_1): Linear(in_features=18, out_features=106, bias=True)
  (layer_out): Linear(in_features=106, out_features=1, bias=True)
  (relu): ReLU()
)
    --> Start regularising_EU_LG_UA
Try trim model: Copy model and delete nodes success
    --> Start module_EU_LG
[ 47.17%] ------------> Checking nodes...
TwoLayerNet(
  (layer_1): Linear(in_features=18, out_features=106, bias=True)
  (layer_out): Linear(in_features=106, out_features=1, bias=True)
  (relu): ReLU()
)
    --> Start regularising_EU_LG_UA
Try trim model: Copy model and delete nodes success
    --> Start module_EU_LG
[ 48.11%] ------------> Checking nodes...
TwoLayerNet(
  (layer_1): Linear(in_features=18, out_features=106, bias=True)
  (layer_out): Linear(in_features=106, out_features=1, bias=True)
  (relu): ReLU()
)
    --> Start regularising_EU_LG_UA
Try trim model: Copy model and delete nodes success
    --> Start module_EU_LG
[ 49.06%] ------------> Checking nodes...
TwoLayerNet(
  (layer_1): Linear(in_features=18, out_features=106, bias=True)
  (layer_out): Linear(in_features=106, out_features=1, bias=True)
  (relu): ReLU()
)
    --> Start regularising_EU_LG_UA
Try trim model: Copy model and delete nodes success
    --> Start module_EU_LG
[ 50.00%] ------------> Checking nodes...
TwoLayerNet(
  (layer_1): Linear(in_features=18, out_features=106, bias=True)
  (layer_out): Linear(in_features=106, out_features=1, bias=True)
  (relu): ReLU()
)
    --> Start regularising_EU_LG_UA
Try trim model: Copy model and delete nodes success
    --> Start module_EU_LG
[ 50.94%] ------------> Checking nodes...
TwoLayerNet(
  (layer_1): Linear(in_features=18, out_features=106, bias=True)
  (layer_out): Linear(in_features=106, out_features=1, bias=True)
  (relu): ReLU()
)
    --> Start regularising_EU_LG_UA
Try trim model: Copy model and delete nodes success
    --> Start module_EU_LG
[ 51.89%] ------------> Checking nodes...
TwoLayerNet(
  (layer_1): Linear(in_features=18, out_features=106, bias=True)
  (layer_out): Linear(in_features=106, out_features=1, bias=True)
  (relu): ReLU()
)
    --> Start regularising_EU_LG_UA
Try trim model: Copy model and delete nodes success
    --> Start module_EU_LG
[ 52.83%] ------------> Checking nodes...
TwoLayerNet(
  (layer_1): Linear(in_features=18, out_features=106, bias=True)
  (layer_out): Linear(in_features=106, out_features=1, bias=True)
  (relu): ReLU()
)
    --> Start regularising_EU_LG_UA
Try trim model: Copy model and delete nodes success
    --> Start module_EU_LG
[ 53.77%] ------------> Checking nodes...
TwoLayerNet(
  (layer_1): Linear(in_features=18, out_features=106, bias=True)
  (layer_out): Linear(in_features=106, out_features=1, bias=True)
  (relu): ReLU()
)
    --> Start regularising_EU_LG_UA
Try trim model: Copy model and delete nodes success
    --> Start module_EU_LG
[ 54.72%] ------------> Checking nodes...
TwoLayerNet(
  (layer_1): Linear(in_features=18, out_features=106, bias=True)
  (layer_out): Linear(in_features=106, out_features=1, bias=True)
  (relu): ReLU()
)
    --> Start regularising_EU_LG_UA
Try trim model: Copy model and delete nodes success
    --> Start module_EU_LG
[ 55.66%] ------------> Checking nodes...
TwoLayerNet(
  (layer_1): Linear(in_features=18, out_features=106, bias=True)
  (layer_out): Linear(in_features=106, out_features=1, bias=True)
  (relu): ReLU()
)
    --> Start regularising_EU_LG_UA
Try trim model: Copy model and delete nodes success
    --> Start module_EU_LG
[ 56.60%] ------------> Checking nodes...
TwoLayerNet(
  (layer_1): Linear(in_features=18, out_features=106, bias=True)
  (layer_out): Linear(in_features=106, out_features=1, bias=True)
  (relu): ReLU()
)
    --> Start regularising_EU_LG_UA
Try trim model: Copy model and delete nodes success
    --> Start module_EU_LG
[ 57.55%] ------------> Checking nodes...
TwoLayerNet(
  (layer_1): Linear(in_features=18, out_features=106, bias=True)
  (layer_out): Linear(in_features=106, out_features=1, bias=True)
  (relu): ReLU()
)
    --> Start regularising_EU_LG_UA
Try trim model: Copy model and delete nodes success
    --> Start module_EU_LG
[ 58.49%] ------------> Checking nodes...
TwoLayerNet(
  (layer_1): Linear(in_features=18, out_features=106, bias=True)
  (layer_out): Linear(in_features=106, out_features=1, bias=True)
  (relu): ReLU()
)
    --> Start regularising_EU_LG_UA
Try trim model: Copy model and delete nodes success
    --> Start module_EU_LG
[ 59.43%] ------------> Checking nodes...
TwoLayerNet(
  (layer_1): Linear(in_features=18, out_features=106, bias=True)
  (layer_out): Linear(in_features=106, out_features=1, bias=True)
  (relu): ReLU()
)
    --> Start regularising_EU_LG_UA
Try trim model: Copy model and delete nodes success
    --> Start module_EU_LG
[ 60.38%] ------------> Checking nodes...
TwoLayerNet(
  (layer_1): Linear(in_features=18, out_features=106, bias=True)
  (layer_out): Linear(in_features=106, out_features=1, bias=True)
  (relu): ReLU()
)
    --> Start regularising_EU_LG_UA
Try trim model: Copy model and delete nodes success
    --> Start module_EU_LG
[ 61.32%] ------------> Checking nodes...
TwoLayerNet(
  (layer_1): Linear(in_features=18, out_features=106, bias=True)
  (layer_out): Linear(in_features=106, out_features=1, bias=True)
  (relu): ReLU()
)
    --> Start regularising_EU_LG_UA
Try trim model: Copy model and delete nodes success
    --> Start module_EU_LG
[ 62.26%] ------------> Checking nodes...
TwoLayerNet(
  (layer_1): Linear(in_features=18, out_features=106, bias=True)
  (layer_out): Linear(in_features=106, out_features=1, bias=True)
  (relu): ReLU()
)
    --> Start regularising_EU_LG_UA
Try trim model: Copy model and delete nodes success
    --> Start module_EU_LG
[ 63.21%] ------------> Checking nodes...
TwoLayerNet(
  (layer_1): Linear(in_features=18, out_features=106, bias=True)
  (layer_out): Linear(in_features=106, out_features=1, bias=True)
  (relu): ReLU()
)
    --> Start regularising_EU_LG_UA
Try trim model: Copy model and delete nodes success
    --> Start module_EU_LG
[ 64.15%] ------------> Checking nodes...
TwoLayerNet(
  (layer_1): Linear(in_features=18, out_features=106, bias=True)
  (layer_out): Linear(in_features=106, out_features=1, bias=True)
  (relu): ReLU()
)
    --> Start regularising_EU_LG_UA
Try trim model: Copy model and delete nodes success
    --> Start module_EU_LG
[ 65.09%] ------------> Checking nodes...
TwoLayerNet(
  (layer_1): Linear(in_features=18, out_features=106, bias=True)
  (layer_out): Linear(in_features=106, out_features=1, bias=True)
  (relu): ReLU()
)
    --> Start regularising_EU_LG_UA
Try trim model: Copy model and delete nodes success
    --> Start module_EU_LG
[ 66.04%] ------------> Checking nodes...
TwoLayerNet(
  (layer_1): Linear(in_features=18, out_features=106, bias=True)
  (layer_out): Linear(in_features=106, out_features=1, bias=True)
  (relu): ReLU()
)
    --> Start regularising_EU_LG_UA
Try trim model: Copy model and delete nodes success
    --> Start module_EU_LG
[ 66.98%] ------------> Checking nodes...
TwoLayerNet(
  (layer_1): Linear(in_features=18, out_features=106, bias=True)
  (layer_out): Linear(in_features=106, out_features=1, bias=True)
  (relu): ReLU()
)
    --> Start regularising_EU_LG_UA
Try trim model: Copy model and delete nodes success
    --> Start module_EU_LG
[ 67.92%] ------------> Checking nodes...
TwoLayerNet(
  (layer_1): Linear(in_features=18, out_features=106, bias=True)
  (layer_out): Linear(in_features=106, out_features=1, bias=True)
  (relu): ReLU()
)
    --> Start regularising_EU_LG_UA
Try trim model: Copy model and delete nodes success
    --> Start module_EU_LG
[ 68.87%] ------------> Checking nodes...
TwoLayerNet(
  (layer_1): Linear(in_features=18, out_features=106, bias=True)
  (layer_out): Linear(in_features=106, out_features=1, bias=True)
  (relu): ReLU()
)
    --> Start regularising_EU_LG_UA
Try trim model: Copy model and delete nodes success
    --> Start module_EU_LG
[ 69.81%] ------------> Checking nodes...
TwoLayerNet(
  (layer_1): Linear(in_features=18, out_features=106, bias=True)
  (layer_out): Linear(in_features=106, out_features=1, bias=True)
  (relu): ReLU()
)
    --> Start regularising_EU_LG_UA
Try trim model: Copy model and delete nodes success
    --> Start module_EU_LG
[ 70.75%] ------------> Checking nodes...
TwoLayerNet(
  (layer_1): Linear(in_features=18, out_features=106, bias=True)
  (layer_out): Linear(in_features=106, out_features=1, bias=True)
  (relu): ReLU()
)
    --> Start regularising_EU_LG_UA
Try trim model: Copy model and delete nodes success
    --> Start module_EU_LG
[ 71.70%] ------------> Checking nodes...
TwoLayerNet(
  (layer_1): Linear(in_features=18, out_features=106, bias=True)
  (layer_out): Linear(in_features=106, out_features=1, bias=True)
  (relu): ReLU()
)
    --> Start regularising_EU_LG_UA
Try trim model: Copy model and delete nodes success
    --> Start module_EU_LG
[ 72.64%] ------------> Checking nodes...
TwoLayerNet(
  (layer_1): Linear(in_features=18, out_features=106, bias=True)
  (layer_out): Linear(in_features=106, out_features=1, bias=True)
  (relu): ReLU()
)
    --> Start regularising_EU_LG_UA
Try trim model: Copy model and delete nodes success
    --> Start module_EU_LG
[ 73.58%] ------------> Checking nodes...
TwoLayerNet(
  (layer_1): Linear(in_features=18, out_features=106, bias=True)
  (layer_out): Linear(in_features=106, out_features=1, bias=True)
  (relu): ReLU()
)
    --> Start regularising_EU_LG_UA
Try trim model: Copy model and delete nodes success
    --> Start module_EU_LG
[ 74.53%] ------------> Checking nodes...
TwoLayerNet(
  (layer_1): Linear(in_features=18, out_features=106, bias=True)
  (layer_out): Linear(in_features=106, out_features=1, bias=True)
  (relu): ReLU()
)
    --> Start regularising_EU_LG_UA
Try trim model: Copy model and delete nodes success
    --> Start module_EU_LG
[ 75.47%] ------------> Checking nodes...
TwoLayerNet(
  (layer_1): Linear(in_features=18, out_features=106, bias=True)
  (layer_out): Linear(in_features=106, out_features=1, bias=True)
  (relu): ReLU()
)
    --> Start regularising_EU_LG_UA
Try trim model: Copy model and delete nodes success
    --> Start module_EU_LG
[ 76.42%] ------------> Checking nodes...
TwoLayerNet(
  (layer_1): Linear(in_features=18, out_features=106, bias=True)
  (layer_out): Linear(in_features=106, out_features=1, bias=True)
  (relu): ReLU()
)
    --> Start regularising_EU_LG_UA
Try trim model: Copy model and delete nodes success
    --> Start module_EU_LG
[ 77.36%] ------------> Checking nodes...
TwoLayerNet(
  (layer_1): Linear(in_features=18, out_features=106, bias=True)
  (layer_out): Linear(in_features=106, out_features=1, bias=True)
  (relu): ReLU()
)
    --> Start regularising_EU_LG_UA
Try trim model: Copy model and delete nodes success
    --> Start module_EU_LG
[ 78.30%] ------------> Checking nodes...
TwoLayerNet(
  (layer_1): Linear(in_features=18, out_features=106, bias=True)
  (layer_out): Linear(in_features=106, out_features=1, bias=True)
  (relu): ReLU()
)
    --> Start regularising_EU_LG_UA
Try trim model: Copy model and delete nodes success
    --> Start module_EU_LG
[ 79.25%] ------------> Checking nodes...
TwoLayerNet(
  (layer_1): Linear(in_features=18, out_features=106, bias=True)
  (layer_out): Linear(in_features=106, out_features=1, bias=True)
  (relu): ReLU()
)
    --> Start regularising_EU_LG_UA
Try trim model: Copy model and delete nodes success
    --> Start module_EU_LG
[ 80.19%] ------------> Checking nodes...
TwoLayerNet(
  (layer_1): Linear(in_features=18, out_features=106, bias=True)
  (layer_out): Linear(in_features=106, out_features=1, bias=True)
  (relu): ReLU()
)
    --> Start regularising_EU_LG_UA
Try trim model: Copy model and delete nodes success
    --> Start module_EU_LG
[ 81.13%] ------------> Checking nodes...
TwoLayerNet(
  (layer_1): Linear(in_features=18, out_features=106, bias=True)
  (layer_out): Linear(in_features=106, out_features=1, bias=True)
  (relu): ReLU()
)
    --> Start regularising_EU_LG_UA
Try trim model: Copy model and delete nodes success
    --> Start module_EU_LG
[ 82.08%] ------------> Checking nodes...
TwoLayerNet(
  (layer_1): Linear(in_features=18, out_features=106, bias=True)
  (layer_out): Linear(in_features=106, out_features=1, bias=True)
  (relu): ReLU()
)
    --> Start regularising_EU_LG_UA
Try trim model: Copy model and delete nodes success
    --> Start module_EU_LG
[ 83.02%] ------------> Checking nodes...
TwoLayerNet(
  (layer_1): Linear(in_features=18, out_features=106, bias=True)
  (layer_out): Linear(in_features=106, out_features=1, bias=True)
  (relu): ReLU()
)
    --> Start regularising_EU_LG_UA
Try trim model: Copy model and delete nodes success
    --> Start module_EU_LG
[ 83.96%] ------------> Checking nodes...
TwoLayerNet(
  (layer_1): Linear(in_features=18, out_features=106, bias=True)
  (layer_out): Linear(in_features=106, out_features=1, bias=True)
  (relu): ReLU()
)
    --> Start regularising_EU_LG_UA
Try trim model: Copy model and delete nodes success
    --> Start module_EU_LG
[ 84.91%] ------------> Checking nodes...
TwoLayerNet(
  (layer_1): Linear(in_features=18, out_features=106, bias=True)
  (layer_out): Linear(in_features=106, out_features=1, bias=True)
  (relu): ReLU()
)
    --> Start regularising_EU_LG_UA
Try trim model: Copy model and delete nodes success
    --> Start module_EU_LG
[ 85.85%] ------------> Checking nodes...
TwoLayerNet(
  (layer_1): Linear(in_features=18, out_features=106, bias=True)
  (layer_out): Linear(in_features=106, out_features=1, bias=True)
  (relu): ReLU()
)
    --> Start regularising_EU_LG_UA
Try trim model: Copy model and delete nodes success
    --> Start module_EU_LG
[ 86.79%] ------------> Checking nodes...
TwoLayerNet(
  (layer_1): Linear(in_features=18, out_features=106, bias=True)
  (layer_out): Linear(in_features=106, out_features=1, bias=True)
  (relu): ReLU()
)
    --> Start regularising_EU_LG_UA
Try trim model: Copy model and delete nodes success
    --> Start module_EU_LG
[ 87.74%] ------------> Checking nodes...
TwoLayerNet(
  (layer_1): Linear(in_features=18, out_features=106, bias=True)
  (layer_out): Linear(in_features=106, out_features=1, bias=True)
  (relu): ReLU()
)
    --> Start regularising_EU_LG_UA
Try trim model: Copy model and delete nodes success
    --> Start module_EU_LG
[ 88.68%] ------------> Checking nodes...
TwoLayerNet(
  (layer_1): Linear(in_features=18, out_features=106, bias=True)
  (layer_out): Linear(in_features=106, out_features=1, bias=True)
  (relu): ReLU()
)
    --> Start regularising_EU_LG_UA
Try trim model: Copy model and delete nodes success
    --> Start module_EU_LG
[ 89.62%] ------------> Checking nodes...
TwoLayerNet(
  (layer_1): Linear(in_features=18, out_features=106, bias=True)
  (layer_out): Linear(in_features=106, out_features=1, bias=True)
  (relu): ReLU()
)
    --> Start regularising_EU_LG_UA
Try trim model: Copy model and delete nodes success
    --> Start module_EU_LG
[ 90.57%] ------------> Checking nodes...
TwoLayerNet(
  (layer_1): Linear(in_features=18, out_features=106, bias=True)
  (layer_out): Linear(in_features=106, out_features=1, bias=True)
  (relu): ReLU()
)
    --> Start regularising_EU_LG_UA
Try trim model: Copy model and delete nodes success
    --> Start module_EU_LG
[ 91.51%] ------------> Checking nodes...
TwoLayerNet(
  (layer_1): Linear(in_features=18, out_features=106, bias=True)
  (layer_out): Linear(in_features=106, out_features=1, bias=True)
  (relu): ReLU()
)
…
Try trim model: Copy model and delete nodes success
    --> Start module_EU_LG
[ 99.26%] ------------> Checking nodes...
TwoLayerNet(
  (layer_1): Linear(in_features=18, out_features=136, bias=True)
  (layer_out): Linear(in_features=136, out_features=1, bias=True)
  (relu): ReLU()
)
    --> Start regularising_EU_LG_UA
Try trim model: Copy model and delete nodes success
    --> Start module_EU_LG
model after reorg: TwoLayerNet(
  (layer_1): Linear(in_features=18, out_features=136, bias=True)
  (layer_out): Linear(in_features=136, out_features=1, bias=True)
  (relu): ReLU()
)
### New lts ###
Total obtaining n: 373
obtaining n over lr goal: 0
Total select n: 376
select n over lr goal: 3
//////////// Start module_EU_LG Epoch ///////////
Lr too small. non acceptable module at max eps tensor([2.5624e+09], dtype=torch.float64, grad_fn=<UnbindBackward0>)
////////// Start CRAM and REORG with unacceptable wt //////////
model after wt: TwoLayerNet(
  (layer_1): Linear(in_features=18, out_features=136, bias=True)
  (layer_out): Linear(in_features=136, out_features=1, bias=True)
  (relu): ReLU()
)
eps_square (last 10) before cram: tensor([[ 6.8612],
        [ 6.9028],
        [ 6.9074],
        [ 7.2064],
        [ 7.2828],
        [ 7.3420],
        [ 7.3804],
        [36.7456],
        [39.9529],
        [61.9543]], dtype=torch.float64, grad_fn=<SliceBackward0>)
cramming sample 373th |0.00% total of 3
cramming sample 374th |33.33% total of 3
cramming sample 375th |66.67% total of 3
model after cram: TwoLayerNet(
  (layer_1): Linear(in_features=18, out_features=145, bias=True)
  (layer_out): Linear(in_features=145, out_features=1, bias=True)
  (relu): ReLU()
)
eps_sqaure (last 10) after cram: tensor([[6.8612e+00],
        [6.9028e+00],
        [6.9074e+00],
        [7.2064e+00],
        [7.2828e+00],
        [7.3420e+00],
        [7.3804e+00],
        [1.6867e-23],
        [1.2978e-23],
        [2.6731e-22]], dtype=torch.float64, grad_fn=<SliceBackward0>)
Acceptable SLFN exist in 'acceptable/cram.pth'.
=================== reorganising ===================
[ 0.00%] ------------> Checking nodes...
TwoLayerNet(
  (layer_1): Linear(in_features=18, out_features=145, bias=True)
  (layer_out): Linear(in_features=145, out_features=1, bias=True)
  (relu): ReLU()
)
    --> Start regularising_EU_LG_UA
Try trim model: Copy model and delete nodes success
    --> Start module_EU_LG
[ 0.69%] ------------> Checking nodes...
TwoLayerNet(
  (layer_1): Linear(in_features=18, out_features=145, bias=True)
  (layer_out): Linear(in_features=145, out_features=1, bias=True)
  (relu): ReLU()
)
    --> Start regularising_EU_LG_UA
Try trim model: Copy model and delete nodes success
    --> Start module_EU_LG
[ 1.38%] ------------> Checking nodes...
TwoLayerNet(
  (layer_1): Linear(in_features=18, out_features=145, bias=True)
  (layer_out): Linear(in_features=145, out_features=1, bias=True)
  (relu): ReLU()
)
    --> Start regularising_EU_LG_UA
Try trim model: Copy model and delete nodes success
    --> Start module_EU_LG
[ 2.07%] ------------> Checking nodes...
TwoLayerNet(
  (layer_1): Linear(in_features=18, out_features=145, bias=True)
  (layer_out): Linear(in_features=145, out_features=1, bias=True)
  (relu): ReLU()
)
    --> Start regularising_EU_LG_UA
Try trim model: Copy model and delete nodes success
    --> Start module_EU_LG
[ 2.76%] ------------> Checking nodes...
TwoLayerNet(
  (layer_1): Linear(in_features=18, out_features=145, bias=True)
  (layer_out): Linear(in_features=145, out_features=1, bias=True)
  (relu): ReLU()
)
    --> Start regularising_EU_LG_UA
Try trim model: Copy model and delete nodes success
    --> Start module_EU_LG
[ 3.45%] ------------> Checking nodes...
TwoLayerNet(
  (layer_1): Linear(in_features=18, out_features=145, bias=True)
  (layer_out): Linear(in_features=145, out_features=1, bias=True)
  (relu): ReLU()
)
    --> Start regularising_EU_LG_UA
Try trim model: Copy model and delete nodes success
    --> Start module_EU_LG
[ 4.14%] ------------> Checking nodes...
TwoLayerNet(
  (layer_1): Linear(in_features=18, out_features=145, bias=True)
  (layer_out): Linear(in_features=145, out_features=1, bias=True)
  (relu): ReLU()
)
    --> Start regularising_EU_LG_UA
Try trim model: Copy model and delete nodes success
    --> Start module_EU_LG
[ 4.83%] ------------> Checking nodes...
TwoLayerNet(
  (layer_1): Linear(in_features=18, out_features=145, bias=True)
  (layer_out): Linear(in_features=145, out_features=1, bias=True)
  (relu): ReLU()
)
    --> Start regularising_EU_LG_UA
Try trim model: Copy model and delete nodes success
    --> Start module_EU_LG
[ 5.52%] ------------> Checking nodes...
TwoLayerNet(
  (layer_1): Linear(in_features=18, out_features=145, bias=True)
  (layer_out): Linear(in_features=145, out_features=1, bias=True)
  (relu): ReLU()
)
    --> Start regularising_EU_LG_UA
Try trim model: Copy model and delete nodes success
    --> Start module_EU_LG
[ 6.21%] ------------> Checking nodes...
TwoLayerNet(
  (layer_1): Linear(in_features=18, out_features=145, bias=True)
  (layer_out): Linear(in_features=145, out_features=1, bias=True)
  (relu): ReLU()
)
    --> Start regularising_EU_LG_UA
Try trim model: Copy model and delete nodes success
    --> Start module_EU_LG
[ 6.90%] ------------> Checking nodes...
TwoLayerNet(
  (layer_1): Linear(in_features=18, out_features=145, bias=True)
  (layer_out): Linear(in_features=145, out_features=1, bias=True)
  (relu): ReLU()
)
    --> Start regularising_EU_LG_UA
Try trim model: Copy model and delete nodes success
    --> Start module_EU_LG
[ 7.59%] ------------> Checking nodes...
TwoLayerNet(
  (layer_1): Linear(in_features=18, out_features=145, bias=True)
  (layer_out): Linear(in_features=145, out_features=1, bias=True)
  (relu): ReLU()
)
    --> Start regularising_EU_LG_UA
Try trim model: Copy model and delete nodes success
    --> Start module_EU_LG
[ 8.28%] ------------> Checking nodes...
TwoLayerNet(
  (layer_1): Linear(in_features=18, out_features=145, bias=True)
  (layer_out): Linear(in_features=145, out_features=1, bias=True)
  (relu): ReLU()
)
    --> Start regularising_EU_LG_UA
Try trim model: Copy model and delete nodes success
    --> Start module_EU_LG
[ 8.97%] ------------> Checking nodes...
TwoLayerNet(
  (layer_1): Linear(in_features=18, out_features=145, bias=True)
  (layer_out): Linear(in_features=145, out_features=1, bias=True)
  (relu): ReLU()
)
    --> Start regularising_EU_LG_UA
Try trim model: Copy model and delete nodes success
    --> Start module_EU_LG
[ 9.66%] ------------> Checking nodes...
TwoLayerNet(
  (layer_1): Linear(in_features=18, out_features=145, bias=True)
  (layer_out): Linear(in_features=145, out_features=1, bias=True)
  (relu): ReLU()
)
    --> Start regularising_EU_LG_UA
Try trim model: Copy model and delete nodes success
    --> Start module_EU_LG
[ 10.34%] ------------> Checking nodes...
TwoLayerNet(
  (layer_1): Linear(in_features=18, out_features=145, bias=True)
  (layer_out): Linear(in_features=145, out_features=1, bias=True)
  (relu): ReLU()
)
    --> Start regularising_EU_LG_UA
Try trim model: Copy model and delete nodes success
    --> Start module_EU_LG
[ 11.03%] ------------> Checking nodes...
TwoLayerNet(
  (layer_1): Linear(in_features=18, out_features=145, bias=True)
  (layer_out): Linear(in_features=145, out_features=1, bias=True)
  (relu): ReLU()
)
    --> Start regularising_EU_LG_UA
Try trim model: Copy model and delete nodes success
    --> Start module_EU_LG
[ 11.72%] ------------> Checking nodes...
TwoLayerNet(
  (layer_1): Linear(in_features=18, out_features=145, bias=True)
  (layer_out): Linear(in_features=145, out_features=1, bias=True)
  (relu): ReLU()
)
    --> Start regularising_EU_LG_UA
Try trim model: Copy model and delete nodes success
    --> Start module_EU_LG
[ 12.41%] ------------> Checking nodes...
TwoLayerNet(
  (layer_1): Linear(in_features=18, out_features=145, bias=True)
  (layer_out): Linear(in_features=145, out_features=1, bias=True)
  (relu): ReLU()
)
    --> Start regularising_EU_LG_UA
Try trim model: Copy model and delete nodes success
    --> Start module_EU_LG
[ 13.10%] ------------> Checking nodes...
TwoLayerNet(
  (layer_1): Linear(in_features=18, out_features=145, bias=True)
  (layer_out): Linear(in_features=145, out_features=1, bias=True)
  (relu): ReLU()
)
    --> Start regularising_EU_LG_UA
Try trim model: Copy model and delete nodes success
    --> Start module_EU_LG
[ 13.79%] ------------> Checking nodes...
TwoLayerNet(
  (layer_1): Linear(in_features=18, out_features=145, bias=True)
  (layer_out): Linear(in_features=145, out_features=1, bias=True)
  (relu): ReLU()
)
    --> Start regularising_EU_LG_UA
Try trim model: Copy model and delete nodes success
    --> Start module_EU_LG
[ 14.48%] ------------> Checking nodes...
TwoLayerNet(
  (layer_1): Linear(in_features=18, out_features=145, bias=True)
  (layer_out): Linear(in_features=145, out_features=1, bias=True)
  (relu): ReLU()
)
    --> Start regularising_EU_LG_UA
Try trim model: Copy model and delete nodes success
    --> Start module_EU_LG
[ 15.17%] ------------> Checking nodes...
TwoLayerNet(
  (layer_1): Linear(in_features=18, out_features=145, bias=True)
  (layer_out): Linear(in_features=145, out_features=1, bias=True)
  (relu): ReLU()
)
    --> Start regularising_EU_LG_UA
Try trim model: Copy model and delete nodes success
    --> Start module_EU_LG
[ 15.86%] ------------> Checking nodes...
TwoLayerNet(
  (layer_1): Linear(in_features=18, out_features=145, bias=True)
  (layer_out): Linear(in_features=145, out_features=1, bias=True)
  (relu): ReLU()
)
    --> Start regularising_EU_LG_UA
Try trim model: Copy model and delete nodes success
    --> Start module_EU_LG
[ 16.55%] ------------> Checking nodes...
TwoLayerNet(
  (layer_1): Linear(in_features=18, out_features=145, bias=True)
  (layer_out): Linear(in_features=145, out_features=1, bias=True)
  (relu): ReLU()
)
    --> Start regularising_EU_LG_UA
Try trim model: Copy model and delete nodes success
    --> Start module_EU_LG
[ 17.24%] ------------> Checking nodes...
TwoLayerNet(
  (layer_1): Linear(in_features=18, out_features=145, bias=True)
  (layer_out): Linear(in_features=145, out_features=1, bias=True)
  (relu): ReLU()
)
    --> Start regularising_EU_LG_UA
Try trim model: Copy model and delete nodes success
    --> Start module_EU_LG
[ 17.93%] ------------> Checking nodes...
TwoLayerNet(
  (layer_1): Linear(in_features=18, out_features=145, bias=True)
  (layer_out): Linear(in_features=145, out_features=1, bias=True)
  (relu): ReLU()
)
    --> Start regularising_EU_LG_UA
Try trim model: Copy model and delete nodes success
    --> Start module_EU_LG
[ 18.62%] ------------> Checking nodes...
TwoLayerNet(
  (layer_1): Linear(in_features=18, out_features=145, bias=True)
  (layer_out): Linear(in_features=145, out_features=1, bias=True)
  (relu): ReLU()
)
    --> Start regularising_EU_LG_UA
Try trim model: Copy model and delete nodes success
    --> Start module_EU_LG
[ 19.31%] ------------> Checking nodes...
TwoLayerNet(
  (layer_1): Linear(in_features=18, out_features=145, bias=True)
  (layer_out): Linear(in_features=145, out_features=1, bias=True)
  (relu): ReLU()
)
    --> Start regularising_EU_LG_UA
Try trim model: Copy model and delete nodes success
    --> Start module_EU_LG
[ 20.00%] ------------> Checking nodes...
TwoLayerNet(
  (layer_1): Linear(in_features=18, out_features=145, bias=True)
  (layer_out): Linear(in_features=145, out_features=1, bias=True)
  (relu): ReLU()
)
    --> Start regularising_EU_LG_UA
Try trim model: Copy model and delete nodes success
    --> Start module_EU_LG
[ 20.69%] ------------> Checking nodes...
TwoLayerNet(
  (layer_1): Linear(in_features=18, out_features=145, bias=True)
  (layer_out): Linear(in_features=145, out_features=1, bias=True)
  (relu): ReLU()
)
    --> Start regularising_EU_LG_UA
Try trim model: Copy model and delete nodes success
    --> Start module_EU_LG
[ 21.38%] ------------> Checking nodes...
TwoLayerNet(
  (layer_1): Linear(in_features=18, out_features=145, bias=True)
  (layer_out): Linear(in_features=145, out_features=1, bias=True)
  (relu): ReLU()
)
    --> Start regularising_EU_LG_UA
Try trim model: Copy model and delete nodes success
    --> Start module_EU_LG
[ 22.07%] ------------> Checking nodes...
TwoLayerNet(
  (layer_1): Linear(in_features=18, out_features=145, bias=True)
  (layer_out): Linear(in_features=145, out_features=1, bias=True)
  (relu): ReLU()
)
    --> Start regularising_EU_LG_UA
Try trim model: Copy model and delete nodes success
    --> Start module_EU_LG
[ 22.76%] ------------> Checking nodes...
TwoLayerNet(
  (layer_1): Linear(in_features=18, out_features=145, bias=True)
  (layer_out): Linear(in_features=145, out_features=1, bias=True)
  (relu): ReLU()
)
    --> Start regularising_EU_LG_UA
Try trim model: Copy model and delete nodes success
    --> Start module_EU_LG
[ 23.45%] ------------> Checking nodes...
TwoLayerNet(
  (layer_1): Linear(in_features=18, out_features=145, bias=True)
  (layer_out): Linear(in_features=145, out_features=1, bias=True)
  (relu): ReLU()
)
    --> Start regularising_EU_LG_UA
Try trim model: Copy model and delete nodes success
    --> Start module_EU_LG
[ 24.14%] ------------> Checking nodes...
TwoLayerNet(
  (layer_1): Linear(in_features=18, out_features=145, bias=True)
  (layer_out): Linear(in_features=145, out_features=1, bias=True)
  (relu): ReLU()
)
    --> Start regularising_EU_LG_UA
Try trim model: Copy model and delete nodes success
    --> Start module_EU_LG
[ 24.83%] ------------> Checking nodes...
TwoLayerNet(
  (layer_1): Linear(in_features=18, out_features=145, bias=True)
  (layer_out): Linear(in_features=145, out_features=1, bias=True)
  (relu): ReLU()
)
    --> Start regularising_EU_LG_UA
Try trim model: Copy model and delete nodes success
    --> Start module_EU_LG
[ 25.52%] ------------> Checking nodes...
TwoLayerNet(
  (layer_1): Linear(in_features=18, out_features=145, bias=True)
  (layer_out): Linear(in_features=145, out_features=1, bias=True)
  (relu): ReLU()
)
    --> Start regularising_EU_LG_UA
Try trim model: Copy model and delete nodes success
    --> Start module_EU_LG
[ 26.21%] ------------> Checking nodes...
TwoLayerNet(
  (layer_1): Linear(in_features=18, out_features=145, bias=True)
  (layer_out): Linear(in_features=145, out_features=1, bias=True)
  (relu): ReLU()
)
    --> Start regularising_EU_LG_UA
Try trim model: Copy model and delete nodes success
    --> Start module_EU_LG
[ 26.90%] ------------> Checking nodes...
TwoLayerNet(
  (layer_1): Linear(in_features=18, out_features=145, bias=True)
  (layer_out): Linear(in_features=145, out_features=1, bias=True)
  (relu): ReLU()
)
    --> Start regularising_EU_LG_UA
Try trim model: Copy model and delete nodes success
    --> Start module_EU_LG
[ 27.59%] ------------> Checking nodes...
TwoLayerNet(
  (layer_1): Linear(in_features=18, out_features=145, bias=True)
  (layer_out): Linear(in_features=145, out_features=1, bias=True)
  (relu): ReLU()
)
    --> Start regularising_EU_LG_UA
Try trim model: Copy model and delete nodes success
    --> Start module_EU_LG
[ 28.28%] ------------> Checking nodes...
TwoLayerNet(
  (layer_1): Linear(in_features=18, out_features=145, bias=True)
  (layer_out): Linear(in_features=145, out_features=1, bias=True)
  (relu): ReLU()
)
    --> Start regularising_EU_LG_UA
Try trim model: Copy model and delete nodes success
    --> Start module_EU_LG
[ 28.97%] ------------> Checking nodes...
TwoLayerNet(
  (layer_1): Linear(in_features=18, out_features=145, bias=True)
  (layer_out): Linear(in_features=145, out_features=1, bias=True)
  (relu): ReLU()
)
    --> Start regularising_EU_LG_UA
Try trim model: Copy model and delete nodes success
    --> Start module_EU_LG
[ 29.66%] ------------> Checking nodes...
TwoLayerNet(
  (layer_1): Linear(in_features=18, out_features=145, bias=True)
  (layer_out): Linear(in_features=145, out_features=1, bias=True)
  (relu): ReLU()
)
    --> Start regularising_EU_LG_UA
Try trim model: Copy model and delete nodes success
    --> Start module_EU_LG
[ 30.34%] ------------> Checking nodes...
TwoLayerNet(
  (layer_1): Linear(in_features=18, out_features=145, bias=True)
  (layer_out): Linear(in_features=145, out_features=1, bias=True)
  (relu): ReLU()
)
    --> Start regularising_EU_LG_UA
Try trim model: Copy model and delete nodes success
    --> Start module_EU_LG
[ 31.03%] ------------> Checking nodes...
TwoLayerNet(
  (layer_1): Linear(in_features=18, out_features=145, bias=True)
  (layer_out): Linear(in_features=145, out_features=1, bias=True)
  (relu): ReLU()
)
    --> Start regularising_EU_LG_UA
Try trim model: Copy model and delete nodes success
    --> Start module_EU_LG
[ 31.72%] ------------> Checking nodes...
TwoLayerNet(
  (layer_1): Linear(in_features=18, out_features=145, bias=True)
  (layer_out): Linear(in_features=145, out_features=1, bias=True)
  (relu): ReLU()
)
    --> Start regularising_EU_LG_UA
Try trim model: Copy model and delete nodes success
    --> Start module_EU_LG
[ 32.41%] ------------> Checking nodes...
TwoLayerNet(
  (layer_1): Linear(in_features=18, out_features=145, bias=True)
  (layer_out): Linear(in_features=145, out_features=1, bias=True)
  (relu): ReLU()
)
    --> Start regularising_EU_LG_UA
Try trim model: Copy model and delete nodes success
    --> Start module_EU_LG
[ 33.10%] ------------> Checking nodes...
TwoLayerNet(
  (layer_1): Linear(in_features=18, out_features=145, bias=True)
  (layer_out): Linear(in_features=145, out_features=1, bias=True)
  (relu): ReLU()
)
    --> Start regularising_EU_LG_UA
Try trim model: Copy model and delete nodes success
    --> Start module_EU_LG
[ 33.79%] ------------> Checking nodes...
TwoLayerNet(
  (layer_1): Linear(in_features=18, out_features=145, bias=True)
  (layer_out): Linear(in_features=145, out_features=1, bias=True)
  (relu): ReLU()
)
    --> Start regularising_EU_LG_UA
Try trim model: Copy model and delete nodes success
    --> Start module_EU_LG
[ 34.48%] ------------> Checking nodes...
TwoLayerNet(
  (layer_1): Linear(in_features=18, out_features=145, bias=True)
  (layer_out): Linear(in_features=145, out_features=1, bias=True)
  (relu): ReLU()
)
    --> Start regularising_EU_LG_UA
Try trim model: Copy model and delete nodes success
    --> Start module_EU_LG
[ 35.17%] ------------> Checking nodes...
TwoLayerNet(
  (layer_1): Linear(in_features=18, out_features=145, bias=True)
  (layer_out): Linear(in_features=145, out_features=1, bias=True)
  (relu): ReLU()
)
    --> Start regularising_EU_LG_UA
Try trim model: Copy model and delete nodes success
    --> Start module_EU_LG
[ 35.86%] ------------> Checking nodes...
TwoLayerNet(
  (layer_1): Linear(in_features=18, out_features=145, bias=True)
  (layer_out): Linear(in_features=145, out_features=1, bias=True)
  (relu): ReLU()
)
    --> Start regularising_EU_LG_UA
Try trim model: Copy model and delete nodes success
    --> Start module_EU_LG
[ 36.55%] ------------> Checking nodes...
TwoLayerNet(
  (layer_1): Linear(in_features=18, out_features=145, bias=True)
  (layer_out): Linear(in_features=145, out_features=1, bias=True)
  (relu): ReLU()
)
    --> Start regularising_EU_LG_UA
Try trim model: Copy model and delete nodes success
    --> Start module_EU_LG
[ 37.24%] ------------> Checking nodes...
TwoLayerNet(
  (layer_1): Linear(in_features=18, out_features=145, bias=True)
  (layer_out): Linear(in_features=145, out_features=1, bias=True)
  (relu): ReLU()
)
    --> Start regularising_EU_LG_UA
Try trim model: Copy model and delete nodes success
    --> Start module_EU_LG
[ 37.93%] ------------> Checking nodes...
TwoLayerNet(
  (layer_1): Linear(in_features=18, out_features=145, bias=True)
  (layer_out): Linear(in_features=145, out_features=1, bias=True)
  (relu): ReLU()
)
    --> Start regularising_EU_LG_UA
Try trim model: Copy model and delete nodes success
    --> Start module_EU_LG
[ 38.62%] ------------> Checking nodes...
TwoLayerNet(
  (layer_1): Linear(in_features=18, out_features=145, bias=True)
  (layer_out): Linear(in_features=145, out_features=1, bias=True)
  (relu): ReLU()
)
    --> Start regularising_EU_LG_UA
Try trim model: Copy model and delete nodes success
    --> Start module_EU_LG
[ 39.31%] ------------> Checking nodes...
TwoLayerNet(
  (layer_1): Linear(in_features=18, out_features=145, bias=True)
  (layer_out): Linear(in_features=145, out_features=1, bias=True)
  (relu): ReLU()
)
    --> Start regularising_EU_LG_UA
Try trim model: Copy model and delete nodes success
    --> Start module_EU_LG
[ 40.00%] ------------> Checking nodes...
TwoLayerNet(
  (layer_1): Linear(in_features=18, out_features=145, bias=True)
  (layer_out): Linear(in_features=145, out_features=1, bias=True)
  (relu): ReLU()
)
    --> Start regularising_EU_LG_UA
Try trim model: Copy model and delete nodes success
    --> Start module_EU_LG
[ 40.69%] ------------> Checking nodes...
TwoLayerNet(
  (layer_1): Linear(in_features=18, out_features=145, bias=True)
  (layer_out): Linear(in_features=145, out_features=1, bias=True)
  (relu): ReLU()
)
    --> Start regularising_EU_LG_UA
Try trim model: Copy model and delete nodes success
    --> Start module_EU_LG
[ 41.38%] ------------> Checking nodes...
TwoLayerNet(
  (layer_1): Linear(in_features=18, out_features=145, bias=True)
  (layer_out): Linear(in_features=145, out_features=1, bias=True)
  (relu): ReLU()
)
    --> Start regularising_EU_LG_UA
Try trim model: Copy model and delete nodes success
    --> Start module_EU_LG
[ 42.07%] ------------> Checking nodes...
TwoLayerNet(
  (layer_1): Linear(in_features=18, out_features=145, bias=True)
  (layer_out): Linear(in_features=145, out_features=1, bias=True)
  (relu): ReLU()
)
    --> Start regularising_EU_LG_UA
Try trim model: Copy model and delete nodes success
    --> Start module_EU_LG
[ 42.76%] ------------> Checking nodes...
TwoLayerNet(
  (layer_1): Linear(in_features=18, out_features=145, bias=True)
  (layer_out): Linear(in_features=145, out_features=1, bias=True)
  (relu): ReLU()
)
    --> Start regularising_EU_LG_UA
Try trim model: Copy model and delete nodes success
    --> Start module_EU_LG
[ 43.45%] ------------> Checking nodes...
TwoLayerNet(
  (layer_1): Linear(in_features=18, out_features=145, bias=True)
  (layer_out): Linear(in_features=145, out_features=1, bias=True)
  (relu): ReLU()
)
    --> Start regularising_EU_LG_UA
Try trim model: Copy model and delete nodes success
    --> Start module_EU_LG
[ 44.14%] ------------> Checking nodes...
TwoLayerNet(
  (layer_1): Linear(in_features=18, out_features=145, bias=True)
  (layer_out): Linear(in_features=145, out_features=1, bias=True)
  (relu): ReLU()
)
    --> Start regularising_EU_LG_UA
Try trim model: Copy model and delete nodes success
    --> Start module_EU_LG
[ 44.83%] ------------> Checking nodes...
TwoLayerNet(
  (layer_1): Linear(in_features=18, out_features=145, bias=True)
  (layer_out): Linear(in_features=145, out_features=1, bias=True)
  (relu): ReLU()
)
    --> Start regularising_EU_LG_UA
Try trim model: Copy model and delete nodes success
    --> Start module_EU_LG
[ 45.52%] ------------> Checking nodes...
TwoLayerNet(
  (layer_1): Linear(in_features=18, out_features=145, bias=True)
  (layer_out): Linear(in_features=145, out_features=1, bias=True)
  (relu): ReLU()
)
    --> Start regularising_EU_LG_UA
Try trim model: Copy model and delete nodes success
    --> Start module_EU_LG
[ 46.21%] ------------> Checking nodes...
TwoLayerNet(
  (layer_1): Linear(in_features=18, out_features=145, bias=True)
  (layer_out): Linear(in_features=145, out_features=1, bias=True)
  (relu): ReLU()
)
    --> Start regularising_EU_LG_UA
Try trim model: Copy model and delete nodes success
    --> Start module_EU_LG
[ 46.90%] ------------> Checking nodes...
TwoLayerNet(
  (layer_1): Linear(in_features=18, out_features=145, bias=True)
  (layer_out): Linear(in_features=145, out_features=1, bias=True)
  (relu): ReLU()
)
    --> Start regularising_EU_LG_UA
Try trim model: Copy model and delete nodes success
    --> Start module_EU_LG
[ 47.59%] ------------> Checking nodes...
TwoLayerNet(
  (layer_1): Linear(in_features=18, out_features=145, bias=True)
  (layer_out): Linear(in_features=145, out_features=1, bias=True)
  (relu): ReLU()
)
    --> Start regularising_EU_LG_UA
Try trim model: Copy model and delete nodes success
    --> Start module_EU_LG
[ 48.28%] ------------> Checking nodes...
TwoLayerNet(
  (layer_1): Linear(in_features=18, out_features=145, bias=True)
  (layer_out): Linear(in_features=145, out_features=1, bias=True)
  (relu): ReLU()
)
    --> Start regularising_EU_LG_UA
Try trim model: Copy model and delete nodes success
    --> Start module_EU_LG
[ 48.97%] ------------> Checking nodes...
TwoLayerNet(
  (layer_1): Linear(in_features=18, out_features=145, bias=True)
  (layer_out): Linear(in_features=145, out_features=1, bias=True)
  (relu): ReLU()
)
    --> Start regularising_EU_LG_UA
Try trim model: Copy model and delete nodes success
    --> Start module_EU_LG
[ 49.66%] ------------> Checking nodes...
TwoLayerNet(
  (layer_1): Linear(in_features=18, out_features=145, bias=True)
  (layer_out): Linear(in_features=145, out_features=1, bias=True)
  (relu): ReLU()
)
    --> Start regularising_EU_LG_UA
Try trim model: Copy model and delete nodes success
    --> Start module_EU_LG
[ 50.34%] ------------> Checking nodes...
TwoLayerNet(
  (layer_1): Linear(in_features=18, out_features=145, bias=True)
  (layer_out): Linear(in_features=145, out_features=1, bias=True)
  (relu): ReLU()
)
    --> Start regularising_EU_LG_UA
Try trim model: Copy model and delete nodes success
    --> Start module_EU_LG
[ 51.03%] ------------> Checking nodes...
TwoLayerNet(
  (layer_1): Linear(in_features=18, out_features=145, bias=True)
  (layer_out): Linear(in_features=145, out_features=1, bias=True)
  (relu): ReLU()
)
    --> Start regularising_EU_LG_UA
Try trim model: Copy model and delete nodes success
    --> Start module_EU_LG
[ 51.72%] ------------> Checking nodes...
TwoLayerNet(
  (layer_1): Linear(in_features=18, out_features=145, bias=True)
  (layer_out): Linear(in_features=145, out_features=1, bias=True)
  (relu): ReLU()
)
    --> Start regularising_EU_LG_UA
Try trim model: Copy model and delete nodes success
    --> Start module_EU_LG
[ 52.41%] ------------> Checking nodes...
TwoLayerNet(
  (layer_1): Linear(in_features=18, out_features=145, bias=True)
  (layer_out): Linear(in_features=145, out_features=1, bias=True)
  (relu): ReLU()
)
    --> Start regularising_EU_LG_UA
Try trim model: Copy model and delete nodes success
    --> Start module_EU_LG
[ 53.10%] ------------> Checking nodes...
TwoLayerNet(
  (layer_1): Linear(in_features=18, out_features=145, bias=True)
  (layer_out): Linear(in_features=145, out_features=1, bias=True)
  (relu): ReLU()
)
    --> Start regularising_EU_LG_UA
Try trim model: Copy model and delete nodes success
    --> Start module_EU_LG
[ 53.79%] ------------> Checking nodes...
TwoLayerNet(
  (layer_1): Linear(in_features=18, out_features=145, bias=True)
  (layer_out): Linear(in_features=145, out_features=1, bias=True)
  (relu): ReLU()
)
    --> Start regularising_EU_LG_UA
Try trim model: Copy model and delete nodes success
    --> Start module_EU_LG
[ 54.48%] ------------> Checking nodes...
TwoLayerNet(
  (layer_1): Linear(in_features=18, out_features=145, bias=True)
  (layer_out): Linear(in_features=145, out_features=1, bias=True)
  (relu): ReLU()
)
    --> Start regularising_EU_LG_UA
Try trim model: Copy model and delete nodes success
    --> Start module_EU_LG
[ 55.17%] ------------> Checking nodes...
TwoLayerNet(
  (layer_1): Linear(in_features=18, out_features=145, bias=True)
  (layer_out): Linear(in_features=145, out_features=1, bias=True)
  (relu): ReLU()
)
    --> Start regularising_EU_LG_UA
Try trim model: Copy model and delete nodes success
    --> Start module_EU_LG
[ 55.86%] ------------> Checking nodes...
TwoLayerNet(
  (layer_1): Linear(in_features=18, out_features=145, bias=True)
  (layer_out): Linear(in_features=145, out_features=1, bias=True)
  (relu): ReLU()
)
    --> Start regularising_EU_LG_UA
Try trim model: Copy model and delete nodes success
    --> Start module_EU_LG
[ 56.55%] ------------> Checking nodes...
TwoLayerNet(
  (layer_1): Linear(in_features=18, out_features=145, bias=True)
  (layer_out): Linear(in_features=145, out_features=1, bias=True)
  (relu): ReLU()
)
    --> Start regularising_EU_LG_UA
Try trim model: Copy model and delete nodes success
    --> Start module_EU_LG
[ 57.24%] ------------> Checking nodes...
TwoLayerNet(
  (layer_1): Linear(in_features=18, out_features=145, bias=True)
  (layer_out): Linear(in_features=145, out_features=1, bias=True)
  (relu): ReLU()
)
    --> Start regularising_EU_LG_UA
Try trim model: Copy model and delete nodes success
    --> Start module_EU_LG
[ 57.93%] ------------> Checking nodes...
TwoLayerNet(
  (layer_1): Linear(in_features=18, out_features=145, bias=True)
  (layer_out): Linear(in_features=145, out_features=1, bias=True)
  (relu): ReLU()
)
    --> Start regularising_EU_LG_UA
Try trim model: Copy model and delete nodes success
    --> Start module_EU_LG
[ 58.62%] ------------> Checking nodes...
TwoLayerNet(
  (layer_1): Linear(in_features=18, out_features=145, bias=True)
  (layer_out): Linear(in_features=145, out_features=1, bias=True)
  (relu): ReLU()
)
    --> Start regularising_EU_LG_UA
Try trim model: Copy model and delete nodes success
    --> Start module_EU_LG
[ 59.31%] ------------> Checking nodes...
TwoLayerNet(
  (layer_1): Linear(in_features=18, out_features=145, bias=True)
  (layer_out): Linear(in_features=145, out_features=1, bias=True)
  (relu): ReLU()
)
    --> Start regularising_EU_LG_UA
Try trim model: Copy model and delete nodes success
    --> Start module_EU_LG
[ 60.00%] ------------> Checking nodes...
TwoLayerNet(
  (layer_1): Linear(in_features=18, out_features=145, bias=True)
  (layer_out): Linear(in_features=145, out_features=1, bias=True)
  (relu): ReLU()
)
    --> Start regularising_EU_LG_UA
Try trim model: Copy model and delete nodes success
    --> Start module_EU_LG
[ 60.69%] ------------> Checking nodes...
TwoLayerNet(
  (layer_1): Linear(in_features=18, out_features=145, bias=True)
  (layer_out): Linear(in_features=145, out_features=1, bias=True)
  (relu): ReLU()
)
    --> Start regularising_EU_LG_UA
Try trim model: Copy model and delete nodes success
    --> Start module_EU_LG
[ 61.38%] ------------> Checking nodes...
TwoLayerNet(
  (layer_1): Linear(in_features=18, out_features=145, bias=True)
  (layer_out): Linear(in_features=145, out_features=1, bias=True)
  (relu): ReLU()
)
    --> Start regularising_EU_LG_UA
Try trim model: Copy model and delete nodes success
    --> Start module_EU_LG
[ 62.07%] ------------> Checking nodes...
TwoLayerNet(
  (layer_1): Linear(in_features=18, out_features=145, bias=True)
  (layer_out): Linear(in_features=145, out_features=1, bias=True)
  (relu): ReLU()
)
    --> Start regularising_EU_LG_UA
Try trim model: Copy model and delete nodes success
    --> Start module_EU_LG
[ 62.76%] ------------> Checking nodes...
TwoLayerNet(
  (layer_1): Linear(in_features=18, out_features=145, bias=True)
  (layer_out): Linear(in_features=145, out_features=1, bias=True)
  (relu): ReLU()
)
    --> Start regularising_EU_LG_UA
Try trim model: Copy model and delete nodes success
    --> Start module_EU_LG
[ 63.45%] ------------> Checking nodes...
TwoLayerNet(
  (layer_1): Linear(in_features=18, out_features=145, bias=True)
  (layer_out): Linear(in_features=145, out_features=1, bias=True)
  (relu): ReLU()
)
    --> Start regularising_EU_LG_UA
Try trim model: Copy model and delete nodes success
    --> Start module_EU_LG
[ 64.14%] ------------> Checking nodes...
TwoLayerNet(
  (layer_1): Linear(in_features=18, out_features=145, bias=True)
  (layer_out): Linear(in_features=145, out_features=1, bias=True)
  (relu): ReLU()
)
    --> Start regularising_EU_LG_UA
Try trim model: Copy model and delete nodes success
    --> Start module_EU_LG
[ 64.83%] ------------> Checking nodes...
TwoLayerNet(
  (layer_1): Linear(in_features=18, out_features=145, bias=True)
  (layer_out): Linear(in_features=145, out_features=1, bias=True)
  (relu): ReLU()
)
    --> Start regularising_EU_LG_UA
Try trim model: Copy model and delete nodes success
    --> Start module_EU_LG
[ 65.52%] ------------> Checking nodes...
TwoLayerNet(
  (layer_1): Linear(in_features=18, out_features=145, bias=True)
  (layer_out): Linear(in_features=145, out_features=1, bias=True)
  (relu): ReLU()
)
    --> Start regularising_EU_LG_UA
Try trim model: Copy model and delete nodes success
    --> Start module_EU_LG
[ 66.21%] ------------> Checking nodes...
TwoLayerNet(
  (layer_1): Linear(in_features=18, out_features=145, bias=True)
  (layer_out): Linear(in_features=145, out_features=1, bias=True)
  (relu): ReLU()
)
    --> Start regularising_EU_LG_UA
Try trim model: Copy model and delete nodes success
    --> Start module_EU_LG
[ 66.90%] ------------> Checking nodes...
TwoLayerNet(
  (layer_1): Linear(in_features=18, out_features=145, bias=True)
  (layer_out): Linear(in_features=145, out_features=1, bias=True)
  (relu): ReLU()
)
    --> Start regularising_EU_LG_UA
Try trim model: Copy model and delete nodes success
    --> Start module_EU_LG
[ 67.59%] ------------> Checking nodes...
TwoLayerNet(
  (layer_1): Linear(in_features=18, out_features=145, bias=True)
  (layer_out): Linear(in_features=145, out_features=1, bias=True)
  (relu): ReLU()
)
    --> Start regularising_EU_LG_UA
Try trim model: Copy model and delete nodes success
    --> Start module_EU_LG
[ 68.28%] ------------> Checking nodes...
TwoLayerNet(
  (layer_1): Linear(in_features=18, out_features=145, bias=True)
  (layer_out): Linear(in_features=145, out_features=1, bias=True)
  (relu): ReLU()
)
    --> Start regularising_EU_LG_UA
Try trim model: Copy model and delete nodes success
    --> Start module_EU_LG
[ 68.97%] ------------> Checking nodes...
TwoLayerNet(
  (layer_1): Linear(in_features=18, out_features=145, bias=True)
  (layer_out): Linear(in_features=145, out_features=1, bias=True)
  (relu): ReLU()
)
    --> Start regularising_EU_LG_UA
Try trim model: Copy model and delete nodes success
    --> Start module_EU_LG
[ 69.66%] ------------> Checking nodes...
TwoLayerNet(
  (layer_1): Linear(in_features=18, out_features=145, bias=True)
  (layer_out): Linear(in_features=145, out_features=1, bias=True)
  (relu): ReLU()
)
    --> Start regularising_EU_LG_UA
Try trim model: Copy model and delete nodes success
    --> Start module_EU_LG
[ 70.34%] ------------> Checking nodes...
TwoLayerNet(
  (layer_1): Linear(in_features=18, out_features=145, bias=True)
  (layer_out): Linear(in_features=145, out_features=1, bias=True)
  (relu): ReLU()
)
    --> Start regularising_EU_LG_UA
Try trim model: Copy model and delete nodes success
    --> Start module_EU_LG
[ 71.03%] ------------> Checking nodes...
TwoLayerNet(
  (layer_1): Linear(in_features=18, out_features=145, bias=True)
  (layer_out): Linear(in_features=145, out_features=1, bias=True)
  (relu): ReLU()
)
    --> Start regularising_EU_LG_UA
Try trim model: Copy model and delete nodes success
    --> Start module_EU_LG
[ 71.72%] ------------> Checking nodes...
TwoLayerNet(
  (layer_1): Linear(in_features=18, out_features=145, bias=True)
  (layer_out): Linear(in_features=145, out_features=1, bias=True)
  (relu): ReLU()
)
    --> Start regularising_EU_LG_UA
Try trim model: Copy model and delete nodes success
    --> Start module_EU_LG
[ 72.41%] ------------> Checking nodes...
TwoLayerNet(
  (layer_1): Linear(in_features=18, out_features=145, bias=True)
  (layer_out): Linear(in_features=145, out_features=1, bias=True)
  (relu): ReLU()
)
    --> Start regularising_EU_LG_UA
Try trim model: Copy model and delete nodes success
    --> Start module_EU_LG
[ 73.10%] ------------> Checking nodes...
TwoLayerNet(
  (layer_1): Linear(in_features=18, out_features=145, bias=True)
  (layer_out): Linear(in_features=145, out_features=1, bias=True)
  (relu): ReLU()
)
    --> Start regularising_EU_LG_UA
Try trim model: Copy model and delete nodes success
    --> Start module_EU_LG
[ 73.79%] ------------> Checking nodes...
TwoLayerNet(
  (layer_1): Linear(in_features=18, out_features=145, bias=True)
  (layer_out): Linear(in_features=145, out_features=1, bias=True)
  (relu): ReLU()
)
    --> Start regularising_EU_LG_UA
Try trim model: Copy model and delete nodes success
    --> Start module_EU_LG
[ 74.48%] ------------> Checking nodes...
TwoLayerNet(
  (layer_1): Linear(in_features=18, out_features=145, bias=True)
  (layer_out): Linear(in_features=145, out_features=1, bias=True)
  (relu): ReLU()
)
    --> Start regularising_EU_LG_UA
Try trim model: Copy model and delete nodes success
    --> Start module_EU_LG
[ 75.17%] ------------> Checking nodes...
TwoLayerNet(
  (layer_1): Linear(in_features=18, out_features=145, bias=True)
  (layer_out): Linear(in_features=145, out_features=1, bias=True)
  (relu): ReLU()
)
    --> Start regularising_EU_LG_UA
Try trim model: Copy model and delete nodes success
    --> Start module_EU_LG
[ 75.86%] ------------> Checking nodes...
TwoLayerNet(
  (layer_1): Linear(in_features=18, out_features=145, bias=True)
  (layer_out): Linear(in_features=145, out_features=1, bias=True)
  (relu): ReLU()
)
    --> Start regularising_EU_LG_UA
Try trim model: Copy model and delete nodes success
    --> Start module_EU_LG
[ 76.55%] ------------> Checking nodes...
TwoLayerNet(
  (layer_1): Linear(in_features=18, out_features=145, bias=True)
  (layer_out): Linear(in_features=145, out_features=1, bias=True)
  (relu): ReLU()
)
    --> Start regularising_EU_LG_UA
Try trim model: Copy model and delete nodes success
    --> Start module_EU_LG
[ 77.24%] ------------> Checking nodes...
TwoLayerNet(
  (layer_1): Linear(in_features=18, out_features=145, bias=True)
  (layer_out): Linear(in_features=145, out_features=1, bias=True)
  (relu): ReLU()
)
    --> Start regularising_EU_LG_UA
Try trim model: Copy model and delete nodes success
    --> Start module_EU_LG
[ 77.93%] ------------> Checking nodes...
TwoLayerNet(
  (layer_1): Linear(in_features=18, out_features=145, bias=True)
  (layer_out): Linear(in_features=145, out_features=1, bias=True)
  (relu): ReLU()
)
    --> Start regularising_EU_LG_UA
Try trim model: Copy model and delete nodes success
    --> Start module_EU_LG
[ 78.62%] ------------> Checking nodes...
TwoLayerNet(
  (layer_1): Linear(in_features=18, out_features=145, bias=True)
  (layer_out): Linear(in_features=145, out_features=1, bias=True)
  (relu): ReLU()
)
    --> Start regularising_EU_LG_UA
Try trim model: Copy model and delete nodes success
    --> Start module_EU_LG
[ 79.31%] ------------> Checking nodes...
TwoLayerNet(
  (layer_1): Linear(in_features=18, out_features=145, bias=True)
  (layer_out): Linear(in_features=145, out_features=1, bias=True)
  (relu): ReLU()
)
    --> Start regularising_EU_LG_UA
Try trim model: Copy model and delete nodes success
    --> Start module_EU_LG
[ 80.00%] ------------> Checking nodes...
TwoLayerNet(
  (layer_1): Linear(in_features=18, out_features=145, bias=True)
  (layer_out): Linear(in_features=145, out_features=1, bias=True)
  (relu): ReLU()
)
    --> Start regularising_EU_LG_UA
Try trim model: Copy model and delete nodes success
    --> Start module_EU_LG
[ 80.69%] ------------> Checking nodes...
TwoLayerNet(
  (layer_1): Linear(in_features=18, out_features=145, bias=True)
  (layer_out): Linear(in_features=145, out_features=1, bias=True)
  (relu): ReLU()
)
    --> Start regularising_EU_LG_UA
Try trim model: Copy model and delete nodes success
    --> Start module_EU_LG
[ 81.38%] ------------> Checking nodes...
TwoLayerNet(
  (layer_1): Linear(in_features=18, out_features=145, bias=True)
  (layer_out): Linear(in_features=145, out_features=1, bias=True)
  (relu): ReLU()
)
    --> Start regularising_EU_LG_UA
Try trim model: Copy model and delete nodes success
    --> Start module_EU_LG
[ 82.07%] ------------> Checking nodes...
TwoLayerNet(
  (layer_1): Linear(in_features=18, out_features=145, bias=True)
  (layer_out): Linear(in_features=145, out_features=1, bias=True)
  (relu): ReLU()
)
    --> Start regularising_EU_LG_UA
Try trim model: Copy model and delete nodes success
    --> Start module_EU_LG
[ 82.76%] ------------> Checking nodes...
TwoLayerNet(
  (layer_1): Linear(in_features=18, out_features=145, bias=True)
  (layer_out): Linear(in_features=145, out_features=1, bias=True)
  (relu): ReLU()
)
    --> Start regularising_EU_LG_UA
Try trim model: Copy model and delete nodes success
    --> Start module_EU_LG
[ 83.45%] ------------> Checking nodes...
TwoLayerNet(
  (layer_1): Linear(in_features=18, out_features=145, bias=True)
  (layer_out): Linear(in_features=145, out_features=1, bias=True)
  (relu): ReLU()
)
    --> Start regularising_EU_LG_UA
Try trim model: Copy model and delete nodes success
    --> Start module_EU_LG
[ 84.14%] ------------> Checking nodes...
TwoLayerNet(
  (layer_1): Linear(in_features=18, out_features=145, bias=True)
  (layer_out): Linear(in_features=145, out_features=1, bias=True)
  (relu): ReLU()
)
    --> Start regularising_EU_LG_UA
Try trim model: Copy model and delete nodes success
    --> Start module_EU_LG
[ 84.83%] ------------> Checking nodes...
TwoLayerNet(
  (layer_1): Linear(in_features=18, out_features=145, bias=True)
  (layer_out): Linear(in_features=145, out_features=1, bias=True)
  (relu): ReLU()
)
    --> Start regularising_EU_LG_UA
Try trim model: Copy model and delete nodes success
    --> Start module_EU_LG
[ 85.52%] ------------> Checking nodes...
TwoLayerNet(
  (layer_1): Linear(in_features=18, out_features=145, bias=True)
  (layer_out): Linear(in_features=145, out_features=1, bias=True)
  (relu): ReLU()
)
    --> Start regularising_EU_LG_UA
Try trim model: Copy model and delete nodes success
    --> Start module_EU_LG
[ 86.21%] ------------> Checking nodes...
TwoLayerNet(
  (layer_1): Linear(in_features=18, out_features=145, bias=True)
  (layer_out): Linear(in_features=145, out_features=1, bias=True)
  (relu): ReLU()
)
    --> Start regularising_EU_LG_UA
Try trim model: Copy model and delete nodes success
    --> Start module_EU_LG
[ 86.90%] ------------> Checking nodes...
TwoLayerNet(
  (layer_1): Linear(in_features=18, out_features=145, bias=True)
  (layer_out): Linear(in_features=145, out_features=1, bias=True)
  (relu): ReLU()
)
    --> Start regularising_EU_LG_UA
Try trim model: Copy model and delete nodes success
    --> Start module_EU_LG
[ 87.59%] ------------> Checking nodes...
TwoLayerNet(
  (layer_1): Linear(in_features=18, out_features=145, bias=True)
  (layer_out): Linear(in_features=145, out_features=1, bias=True)
  (relu): ReLU()
)
    --> Start regularising_EU_LG_UA
Try trim model: Copy model and delete nodes success
    --> Start module_EU_LG
[ 88.28%] ------------> Checking nodes...
TwoLayerNet(
  (layer_1): Linear(in_features=18, out_features=145, bias=True)
  (layer_out): Linear(in_features=145, out_features=1, bias=True)
  (relu): ReLU()
)
    --> Start regularising_EU_LG_UA
Try trim model: Copy model and delete nodes success
    --> Start module_EU_LG
[ 88.97%] ------------> Checking nodes...
TwoLayerNet(
  (layer_1): Linear(in_features=18, out_features=145, bias=True)
  (layer_out): Linear(in_features=145, out_features=1, bias=True)
  (relu): ReLU()
)
    --> Start regularising_EU_LG_UA
Try trim model: Copy model and delete nodes success
    --> Start module_EU_LG
[ 89.66%] ------------> Checking nodes...
TwoLayerNet(
  (layer_1): Linear(in_features=18, out_features=145, bias=True)
  (layer_out): Linear(in_features=145, out_features=1, bias=True)
  (relu): ReLU()
)
    --> Start regularising_EU_LG_UA
Try trim model: Copy model and delete nodes success
    --> Start module_EU_LG
[ 90.34%] ------------> Checking nodes...
TwoLayerNet(
  (layer_1): Linear(in_features=18, out_features=145, bias=True)
  (layer_out): Linear(in_features=145, out_features=1, bias=True)
  (relu): ReLU()
)
    --> Start regularising_EU_LG_UA
Try trim model: Copy model and delete nodes success
    --> Start module_EU_LG
[ 91.03%] ------------> Checking nodes...
TwoLayerNet(
  (layer_1): Linear(in_features=18, out_features=145, bias=True)
  (layer_out): Linear(in_features=145, out_features=1, bias=True)
  (relu): ReLU()
)
    --> Start regularising_EU_LG_UA
Try trim model: Copy model and delete nodes success
    --> Start module_EU_LG
[ 91.72%] ------------> Checking nodes...
TwoLayerNet(
  (layer_1): Linear(in_features=18, out_features=145, bias=True)
  (layer_out): Linear(in_features=145, out_features=1, bias=True)
  (relu): ReLU()
)
    --> Start regularising_EU_LG_UA
Try trim model: Copy model and delete nodes success
    --> Start module_EU_LG
[ 92.41%] ------------> Checking nodes...
TwoLayerNet(
  (layer_1): Linear(in_features=18, out_features=145, bias=True)
  (layer_out): Linear(in_features=145, out_features=1, bias=True)
  (relu): ReLU()
)
    --> Start regularising_EU_LG_UA
Try trim model: Copy model and delete nodes success
    --> Start module_EU_LG
[ 93.10%] ------------> Checking nodes...
TwoLayerNet(
  (layer_1): Linear(in_features=18, out_features=145, bias=True)
  (layer_out): Linear(in_features=145, out_features=1, bias=True)
  (relu): ReLU()
)
    --> Start regularising_EU_LG_UA
Try trim model: Copy model and delete nodes success
    --> Start module_EU_LG
[ 93.79%] ------------> Checking nodes...
TwoLayerNet(
  (layer_1): Linear(in_features=18, out_features=145, bias=True)
  (layer_out): Linear(in_features=145, out_features=1, bias=True)
  (relu): ReLU()
)
    --> Start regularising_EU_LG_UA
Try trim model: Copy model and delete nodes success
    --> Start module_EU_LG
[ 94.48%] ------------> Checking nodes...
TwoLayerNet(
  (layer_1): Linear(in_features=18, out_features=145, bias=True)
  (layer_out): Linear(in_features=145, out_features=1, bias=True)
  (relu): ReLU()
)
    --> Start regularising_EU_LG_UA
Try trim model: Copy model and delete nodes success
    --> Start module_EU_LG
[ 95.17%] ------------> Checking nodes...
TwoLayerNet(
  (layer_1): Linear(in_features=18, out_features=145, bias=True)
  (layer_out): Linear(in_features=145, out_features=1, bias=True)
  (relu): ReLU()
)
    --> Start regularising_EU_LG_UA
Try trim model: Copy model and delete nodes success
    --> Start module_EU_LG
[ 95.86%] ------------> Checking nodes...
TwoLayerNet(
  (layer_1): Linear(in_features=18, out_features=145, bias=True)
  (layer_out): Linear(in_features=145, out_features=1, bias=True)
  (relu): ReLU()
)
    --> Start regularising_EU_LG_UA
Try trim model: Copy model and delete nodes success
    --> Start module_EU_LG
[ 96.55%] ------------> Checking nodes...
TwoLayerNet(
  (layer_1): Linear(in_features=18, out_features=145, bias=True)
  (layer_out): Linear(in_features=145, out_features=1, bias=True)
  (relu): ReLU()
)
    --> Start regularising_EU_LG_UA
Try trim model: Copy model and delete nodes success
    --> Start module_EU_LG
[ 97.24%] ------------> Checking nodes...
TwoLayerNet(
  (layer_1): Linear(in_features=18, out_features=145, bias=True)
  (layer_out): Linear(in_features=145, out_features=1, bias=True)
  (relu): ReLU()
)
    --> Start regularising_EU_LG_UA
Try trim model: Copy model and delete nodes success
    --> Start module_EU_LG
[ 97.93%] ------------> Checking nodes...
TwoLayerNet(
  (layer_1): Linear(in_features=18, out_features=145, bias=True)
  (layer_out): Linear(in_features=145, out_features=1, bias=True)
  (relu): ReLU()
)
    --> Start regularising_EU_LG_UA
Try trim model: Copy model and delete nodes success
    --> Start module_EU_LG
[ 98.62%] ------------> Checking nodes...
TwoLayerNet(
  (layer_1): Linear(in_features=18, out_features=145, bias=True)
  (layer_out): Linear(in_features=145, out_features=1, bias=True)
  (relu): ReLU()
)
    --> Start regularising_EU_LG_UA
Try trim model: Copy model and delete nodes success
    --> Start module_EU_LG
[ 99.31%] ------------> Checking nodes...
TwoLayerNet(
  (layer_1): Linear(in_features=18, out_features=145, bias=True)
  (layer_out): Linear(in_features=145, out_features=1, bias=True)
  (relu): ReLU()
)
    --> Start regularising_EU_LG_UA
Try trim model: Copy model and delete nodes success
    --> Start module_EU_LG
model after reorg: TwoLayerNet(
  (layer_1): Linear(in_features=18, out_features=145, bias=True)
  (layer_out): Linear(in_features=145, out_features=1, bias=True)
  (relu): ReLU()
)
